scripts/IA_TCC/resultados/checkpoints/modelo_treinado.pth (torch, 545308 bytes, 6 tensors)

embedding.weight f4 [177, 100]
00000000: 9b9f f8be 89ff 813f 871c 6ebf c34c cbbf
00000010: 3d62 9dbf 3986 91bf 0009 f03f a659 783e
00000020: cfea 27bf b11e 813c 681c ad3f af7c 593f
00000030: 7998 9b3f 14fb dc3e cf70 1f3f 40eb 2f40
00000040: 5fd6 b4bf 6463 d8bf c958 7bbe d2e4 c53f
00000050: 9ddb a4be e03f b7bf 39d1 e03e 1277 a3bf
00000060: 8dce 1fbf d802 703c 3e93 8c3f ddcc 283f
00000070: 6f70 173d cf87 0f3e f1a3 1b3f f1e8 063f
00000080: 30d1 02c0 5c2b ae3d d36d 5dbe e0c9 d7bf
00000090: e485 1a3f 71d7 67be d6be ad3d 5e07 dfbe
000000a0: d2f2 b33f 1a95 92bd d4ce 5cbf 1071 fc3e
000000b0: 4f09 2fbf b0e3 3b40 d3bd b13e 02a1 dd3f
000000c0: 2774 7dbf 713d bfbe b902 563f d523 22bf
000000d0: f4b8 1ebf a1b0 ec3d a3b7 6bbf a144 1fbe
000000e0: f70c ff3f ddbf 203f 7c05 193f 9237 163f
000000f0: 7cc8 cf3f 9678 5d3e 9452 1f3e 85e3 d73e
00000100: 634d 3ebf 143d 4ebf d9d7 fa3e 27f8 153e
00000110: 078f 6cbf b31e 21be 9103 283e c831 6f3d
00000120: 8aef ed3e 93e9 613f 91c8 aa3f 84c2 913e
00000130: cef7 f3be 1c0d 35bf c615 303f 685f d6bf
00000140: 19e1 a2bf b843 27bf 59ed 983d e116 6b3d
00000150: fdea d9be 556e 1dbf 7fb6 20be ddcb 9d3f
00000160: 45cc 4abf dbc7 ce3f 0f71 60be d8ea 763f
00000170: 2a18 013e cf28 39c0 9590 65bf 4ea1 1bbf
00000180: 4f6d f5bf ca7e 89bf 02a4 863f a45a 143f
00000190: bc7a df3f d023 eabf eaf7 893f fabd 09bd
000001a0: fd20 b7ba fe8a 6fbf 9d67 45bf 55b2 1840
000001b0: 0f5d efbe 9b50 0ec0 4053 0b3f 68b1 d8bf
000001c0: 913f cf3d b430 af3f c666 c1bf 673f e53f
000001d0: 608f 71bf b5eb a63f b20a a53f f8a0 b53e
000001e0: 4e0e 2dbf 10bb 403f 593b 67bd c1eb d0be
000001f0: d2f4 323e 0d2d 73be 43f4 b83f 0529 1c3e
00000200: 6c89 1d3f 6cee 21bc 3ef7 c83e 5bbd a3bf
00000210: 1426 ccbe 3f98 c83f ad77 6e3f 38c3 06bf
00000220: 8f89 2ebf bc6b b03f 9bd0 f83e 4182 9cbe
00000230: 03a0 463f 3ece 11bf 4ff4 ec3f 06b2 a7be
00000240: b911 4bbe 7861 483f 66e0 1c3f 28fa 003e
00000250: 2a53 9dbf 676d 1cbf 9e2b 88bf 8a55 85bf
00000260: 6458 f33e 1cce 4f3f 6ca8 df3e 7b3a 42be
00000270: 6f65 0a40 0de5 d8bc 8786 e63e 23a2 d03f
00000280: 6234 f4be 03f0 423f 6311 ff3e 0eb2 eb3f
00000290: 76e2 7f3e 1273 a33f 1e1c e2be 36cf ab3f
000002a0: 1cbc 213e 066e af3f 638f 54bf 0927 1e3f
000002b0: d80e a6bc 9c4e 673f 546e 173f 68cc 683d
000002c0: 47de 06bc 6c20 17bf 788b 703e 11bc 3dbf
000002d0: 4b89 d63f 10e7 4e3f f396 f4be 8498 ef3f
000002e0: 38a3 3f3f 73f3 e0bc 0a93 01bf 08fb 2ebf
000002f0: 9444 a83e 4d7b 59bd 4010 a6bf 4cb6 063d
00000300: a04b 4f3f ace0 02bf e3d3 dabe 40ca 083f
00000310: 3c9e d1be b437 d43f e2b0 55bf 52a0 4a3e
00000320: 864b 893d 4671 1fbf 323b 09bf 6831 c63d
00000330: ba87 2c3e d31a 15bf 5d94 4e3f d8dc 8d3e
00000340: 6d32 97bf 9f7f 753f 1855 68bf f368 be3d
00000350: 4d2e 0dbf 2662 b5bf adca bfbf 3b7a b73e
00000360: d02c 2fbf 2319 5ebd 76f2 84bf 059c a23f
00000370: 6380 fabe 53bb 4bbf 340e f43e 2ab4 0abf
00000380: b39c 733e f499 f8be 8a58 863e 0a40 923f
00000390: 9b25 b43e ebcf 403f 42a0 0fbf 2340 86bf
000003a0: df83 93bf eab6 98bf 4880 533f 9e69 ea3e
000003b0: 1ff2 cf3e b2fe d73f 4888 56bf 167f 7abf
000003c0: 5f05 a1bf 486b d33f 4b04 f1bf 7268 203f
000003d0: 5a81 53bf f260 d1bf d953 9d3f 3efc 9b3f
000003e0: 7391 a43f 444e a33e 083c 5f3f 3217 7f3f
000003f0: 6c7e db3e 331f 843f 73be e7be 7f69 813f
-0.4855927 1.0156108 -0.9301228 -1.5882801 -1.2295605 -1.1369087 1.8752747 0.24252948
-0.65592664 0.015761705 1.3524294 0.8495588 1.2155906 0.43160307 0.6228151 2.7487335
-1.4127921 -1.6905332 -0.24545588 1.5460455 -0.32198802 -1.4316368 0.43909624 -1.2770712
-0.62424546 0.0146491155 1.0982435 0.65937597 0.03697246 0.1401665 0.6079703 0.5269919
-2.0440178 0.08504364 -0.21623926 -1.6858482 0.6036055 -0.22640778 0.08483665 -0.43560308
1.4058478 -0.07157345 -0.86253095 0.4930501 -0.6837358 2.935772 0.34715137 1.7314761
-0.9900536 -0.37351564 0.83597904 -0.63335925 -0.62000966 0.11557127 -0.9207708 -0.15553524
1.9925832 0.6279276 0.59773993 0.58678544 1.6233058 0.21628031 0.15558845 0.4216577
-0.7433683 -0.8056195 0.48992804 0.14645444 -0.9240574 -0.15734367 0.1640761 0.058397084
0.46471816 0.8824703 1.3342458 0.28468716 -0.47649997 -0.7072313 0.68783224 -1.6747866
-1.2724944 -0.65337706 0.074671455 0.057394866 -0.42562094 -0.6149648 -0.15694617 1.2327839
-0.7921794 1.6154741 -0.21918128 0.96452093 0.12606874 -2.8931158 -0.8967374 -0.60793006
-1.9173983 -1.0741818 1.0518801 0.57950807 1.745933 -1.8292179 1.0778782 -0.03362844
-0.0013971623 -0.9357146 -0.77111226 2.3858845 -0.46750686 -2.2236698 0.54423904 -1.692914
0.10119546 1.3686738 -1.5109489 1.7909974 -0.943594 1.3040682 1.2893889 0.35474372
-0.6759995 0.75285435 -0.056453083 -0.40804866 0.17476204 -0.23747654 1.4449543 0.15250023
0.61537814 -0.009883504 0.3925113 -1.2792162 -0.398728 1.5671462 0.9315136 -0.5264163
-0.6817865 1.3782878 0.48596653 -0.30568126 0.7758791 -0.56955326 1.8512057 -0.3275301
-0.1983098 0.78273726 0.61279905 0.12595427 -1.2291005 -0.61104435 -1.0638311 -1.041673
0.47528374 0.8117387 0.43683183 -0.18967621 2.162441 -0.026476407 0.4502451 1.629948
-0.47696215 0.7614748 0.49817953 1.8413713 0.24988732 1.2769492 -0.44162077 1.3422611
0.15794414 1.3705451 -0.8303129 0.6177831 -0.02027075 0.90354323 0.5915272 0.056835562
-0.008231706 -0.59033847 0.23490703 -0.7411509 1.6760648 0.80821323 -0.47771415 1.8718419
0.7485843 -0.027459836 -0.5061499 -0.68351793 0.3286482 -0.053096104 -1.2973709 0.032888696
0.8097477 -0.5112407 -0.42739782 0.5343361 -0.40941036 1.6579499 -0.83473027 0.1978772
0.06703858 -0.62282217 -0.5360595 0.09677392 0.1684865 -0.58244056 0.80695134 0.27707553
-1.1812264 0.9589786 -0.9075484 0.09297361 -0.55148774 -1.4170578 -1.4983727 0.35835442
-0.68427753 -0.05422319 -1.0386493 1.2703863 -0.48926076 -0.7958271 0.47667086 -0.5418116
0.23790245 -0.48554957 0.26239425 1.1425793 0.3518494 0.7531726 -0.5610391 -1.0488323
-1.1524619 -1.1930821 0.82617617 0.45783705 0.4061441 1.6874602 -0.838017 -0.9785017
-1.2579764 1.6517115 -1.8829435 0.6265937 -0.8261925 -1.635771 1.2291213 1.2186353
1.2856888 0.3189565 0.87200975 0.9964477 0.4286989 1.0322021 -0.4526249 1.011032

lstm.weight_ih_l0 f4 [512, 100]
00000000: 11fa 9ebc 18e4 96bd 8381 843d 334a ae3d
00000010: 8545 13bc df0a 833d 6661 ebbc e30c a4bb
00000020: f72a 6cbd a659 463d 19e1 263c 4c3a 693d
00000030: 8702 8cbd b850 37bc b817 8e3d 3272 7cbc
00000040: 0ca7 233d 646a 70bd 4534 aebd b180 6a3d
00000050: 9d1d 873c 39cd 8abd 547f 51bc 2ff9 99bd
00000060: a022 66bc 9f69 d9bd c738 973d 723a 5e3d
00000070: 3480 33bc 4dd5 713d 7c73 293d d82f 8cbd
00000080: 93c0 ba3c 7dac d33d e4e3 c33c b819 10bc
00000090: f37d 953d aefa 5e3d 3a85 00bd 4b25 0a3c
000000a0: b69d 5a3d 6f11 663d 3cd2 aebd 734a 7ebd
000000b0: d1de 0b3d 3b3c 5fbd d7a0 5e3d 9bb9 4bbd
000000c0: 3646 0cbd 5843 0cbc 87a9 96bd 9b1d 9dbd
000000d0: fe06 8eba 1e52 3fbc fa8e 153c 2e3d a33c
000000e0: 057c 963d ee61 c1bc 63b8 cfba 3be0 733d
000000f0: fbe1 18bd d07d a5bd 527d 70bc 7948 293d
00000100: ebb9 2b3d 31dd 743d 61d4 62bd 78d2 7b3d
00000110: cb99 8a3d 825c b33d 6f73 3d3c 0658 36bd
00000120: 73e6 893c a1a1 20bc 0008 95bd 3151 7b3c
00000130: e212 94bb 573c 443d 3dd6 693d 510e 04bd
00000140: 34f5 293d 5f5b 9d3b b72e d73d f929 f5bc
00000150: f847 04bd a439 283c cf5f 333d 268a 1c3d
00000160: ffc4 c53a b3fa 5cbd 7869 18bc 49a5 9f3d
00000170: 8654 a0bd 5bbf a8bd b553 0abd a2f4 43bd
00000180: e77f 50bd 5f02 78bd fc4c a73c 7a89 2a3d
00000190: 01c1 e1bc 7b68 483d 90bd 9c3d e6d2 bcbc
000001a0: c8f3 8b3d dd0e c7bc efca 94bd 819a 873d
000001b0: faa6 c6bc 7294 eeb9 630a 143d 6a43 95ba
000001c0: ba86 3ebc e273 493d ac24 363d bb6c 81bd
000001d0: 1c31 df3c 3040 7cbd 275f 22bc ba30 e93c
000001e0: e197 a7bd e791 b33d c621 96bd e071 c13d
000001f0: 7d9e 413d 47f1 183d a8cb 20bd 88c0 0c3c
00000200: 6ca2 0b3d e915 813d ae49 b9bc 867d 37bd
00000210: 20bf a43d da23 243d 463d 0f3d 6408 423c
00000220: 5af4 6ebd 6080 b03d 3637 983c 056c 1f3d
00000230: c248 7dbc 08f6 9abd d47f 7dbd a17d a93d
00000240: c61a 813d 7781 9b3d b10d 40bd f90f 01bc
00000250: 1b83 533d 7d94 333d b5f4 613d 0dd9 9cbd
00000260: 6ec3 a9bc ab15 eb3c ba3d 893d 1fd8 a5bd
00000270: face 023c 95fb 753b 7d45 89bd 6a04 a63d
00000280: ea65 ea3c 8cd8 e1bc cff6 6dbd 799b 3cbc
00000290: c663 a93d ebcd ebbb 32bb 1eba 4e6c 8abd
000002a0: f420 3d3d 7c4e 18bd ced8 ccbd b4de 59bc
000002b0: ce63 12bd f453 b1bd e366 313d 8536 5f3d
000002c0: b1f7 3c3c 8440 c93c 8eb5 883d 1580 22bd
000002d0: 9db4 a43d e7bc 893d 1461 afbc c61c ab3d
000002e0: a984 5bbc 102d 24bd baf5 853d a458 29bd
000002f0: c8a4 1abc 1708 11bd b31e 683d bf78 afbd
00000300: f20c 46bd 37b6 e93b d090 17bd f72d 10bd
00000310: a296 16bd c078 58bc 4634 8abd 3dc9 613d
00000320: 8e2e 1d3d 9c1e 423d 11a3 86bd 6ad2 a3bd
00000330: 1d97 8ebb f6d6 b5bc 9e83 65bc 1f28 41bd
00000340: f62d 8f3d f3fd 04bd 38c3 b33b 003f 7e3d
00000350: bf5c 283d 290f 1a3d 45d7 0fbd a898 853d
00000360: 11c8 3abd 5cad 99bc 6bfd 1ebd 2d90 43bc
00000370: 2ead 37bd 8c45 0f3d b696 6a3d c325 5f3c
00000380: 2c33 8c3d b850 c3bb ee9e 0ebd 6bd5 87bd
00000390: 0562 37bd 26c2 35bd 8152 f8bc 7f08 f4bc
000003a0: 2987 713d 91fd be3d 8182 c43c 7a81 283d
000003b0: aee0 43bd 2cac 40bc c367 dcbd 678c 0a3d
000003c0: 888e 12bc 255a 91bd 7e95 903d 39b6 8b3d
000003d0: 7bb4 053d 9c24 5ebd 4dd1 3b3d d23a 833d
000003e0: 364f 4c3d 6261 a43c a903 aebd ea3f f3bc
000003f0: 9f1c 31bd 9e01 7d3d 72a1 8b3c a362 56bc
-0.01940635 -0.07367724 0.06470015 0.08510246 -0.008988743 0.06398558 -0.028732967 -0.005006419
-0.057658162 0.04842534 0.010185503 0.05694036 -0.068364196 -0.011188678 0.06938118 -0.015408086
0.03995423 -0.058695212 -0.08506063 0.057251636 0.016493613 -0.06777424 -0.012786705 -0.07518231
-0.014046341 -0.10615849 0.07383876 0.054254957 -0.010955859 0.05904131 0.0413699 -0.06845063
0.022796905 0.10335634 0.023912378 -0.008795194 0.072994135 0.054438286 -0.031377055 0.008431743
0.05337306 0.05616897 -0.08536193 -0.06208272 0.03414804 -0.0545008 0.054352608 -0.049737554
-0.034246646 -0.008560978 -0.073565535 -0.076716624 -0.0010835824 -0.011677293 0.009128327 0.019926634
0.073478736 -0.023606267 -0.0015847798 0.059540015 -0.037324887 -0.080806375 -0.014678316 0.04132888
0.041925352 0.059781257 -0.05537832 0.061480016 0.06767615 0.08757879 0.011563166 -0.04451754
0.01683352 -0.00980416 -0.072769165 0.015339182 -0.0045188526 0.047909107 0.05708908 -0.032240216
0.04149361 0.004802152 0.10506957 -0.02992724 -0.032295197 0.010267649 0.043792542 0.038217686
0.0015088617 -0.053950023 -0.009302489 0.077951975 -0.078286216 -0.08239623 -0.033771235 -0.047840722
-0.050903227 -0.060549136 0.020422451 0.041635014 -0.027557852 0.048927765 0.07653344 -0.023049783
0.06833607 -0.02429908 -0.07265269 0.06621266 -0.024249543 -0.00045505498 0.036142718 -0.0011387889
-0.011628801 0.04918278 0.044468567 -0.06319567 0.027245097 -0.06158465 -0.009910381 0.028465617
-0.081832655 0.08768063 -0.073306605 0.09445548 0.047270287 0.037339475 -0.03925672 0.008590825
0.034090444 0.06303007 -0.022618141 -0.044797443 0.08044267 0.040073253 0.034970544 0.011842821
-0.0583385 0.086182356 0.018581014 0.038921375 -0.015459241 -0.07566458 -0.061889485 0.08275915
0.06303935 0.07593053 -0.046888057 -0.007877343 0.051638704 0.04384278 0.05516501 -0.07658587
-0.020723071 0.028696856 0.067012265 -0.080978625 0.007983917 0.0037533988 -0.06702707 0.08106311
0.02861305 -0.027569078 -0.058096703 -0.011511677 0.082709834 -0.007196178 -0.0006055116 -0.06758939
0.046174005 -0.037184224 -0.1000229 -0.0132977255 -0.035739712 -0.08658591 0.04331101 0.054495353
0.011533664 0.024566896 0.06675254 -0.03967293 0.08042262 0.067254834 -0.021408595 0.083550975
-0.013398328 -0.040082037 0.06541009 -0.0413443 -0.009438701 -0.035408106 0.056669902 -0.08567952
-0.04835219 0.0071323174 -0.03700334 -0.035200085 -0.03676475 -0.013212383 -0.067482516 0.055123556
0.038374476 0.047392473 -0.06574071 -0.07999118 -0.00435151 -0.022197228 -0.014008431 -0.047157403
0.06991188 -0.032468747 0.0054859184 0.0620718 0.041104075 0.037612114 -0.035117406 0.065232575
-0.045600954 -0.018759422 -0.038815897 -0.01193623 -0.04484289 0.034978434 0.057272635 0.013619843
0.06845698 -0.00596055 -0.034819536 -0.06632503 -0.044771213 -0.044374608 -0.030312778 -0.029789208
0.05896679 0.09325708 0.02398801 0.041139103 -0.047821693 -0.011759799 -0.107619785 0.033825304
-0.008945115 -0.07097272 0.07059763 0.068218656 0.032642823 -0.054234132 0.0458539 0.064077035
0.04988023 0.020065967 -0.08496792 -0.029693563 -0.043240186 0.06176912 0.017044757 -0.01308504

lstm.weight_hh_l0 f4 [512, 128]
00000000: 5c66 273d b481 a63c 25f7 b6bd d680 9b3c
00000010: d150 40bd d41e 923d e93a 10bd 51a0 0a3d
00000020: 293f 90bd e125 bebd ce94 243d db0a 053c
00000030: 5333 9e3d c77d e13d 7ddb ce3c 36a0 99bd
00000040: dd74 d33c 6e73 10bd 8ce9 c0bd 8062 91bd
00000050: f691 e0bd 6d68 853d b955 07bd cf49 113c
00000060: 9d14 87bd 256c 8a3a 05e4 ddbd 5dca 883d
00000070: 75bd 073c b64a 653c 96ef 4cbd ba80 71bd
00000080: fd81 81bd 535f afbb 7410 6fbd f58a d73d
00000090: 2b50 a13d 04e1 1fbd 73fa a33d 550b bc3d
000000a0: 8be7 fb3c c581 c5bd 6e42 703c 494b f33b
000000b0: 6ba7 a63c a856 f13c 4c1a 0dbb 21bd 653d
000000c0: 12e1 bebd fa0c 09bd 9652 0a3b 90b6 42bd
000000d0: 545f 983d d380 dd3c beca b23c e200 b13d
000000e0: 6f9d 0dbb cd83 163c e5c6 9dbd ebf3 b7bd
000000f0: f75e 0e3d f066 d83c 6948 dc3b 9eda a83d
00000100: b4df 98bd ac8c feb9 5c48 f9bc 0dab dbbd
00000110: 7152 e0bd fab6 9b3d f88c a13d 898d 2c3d
00000120: c563 a4bc f1a0 0a3d 30e3 8d3d 863a 51bd
00000130: 2844 c4bd cb52 3d3d 5c57 11bd c2de f6ba
00000140: 742b c73c 1897 fc3c 657d a6bd 1a75 043d
00000150: 2039 b73d b1ce b53c 5eb1 9ebd d937 25bd
00000160: 0b1d cfbb 5da6 60bd c5f4 50bc 81d2 a6bb
00000170: 8192 74bc 3638 a0bd ddac 863c 345f 4cbd
00000180: 7f24 4c3c 8995 0cbd 6f39 a33c d8b6 4e3d
00000190: 8695 f0bc f98a b43d b3e7 833d 83f6 5dbd
000001a0: 03e3 94bd 2169 d9bc 3eab 273d f5da a7bb
000001b0: c816 8d3d b64c 16bc 502b b2bd 3a8c b8ba
000001c0: afe1 4abd fccd b33d 13a8 563b 9faa bbbc
000001d0: 84f3 203d 9d4c b9bc 23db 9c3b 2929 d2bd
000001e0: 6094 533d 4c87 a8bd 47f8 a43d 326c 94bd
000001f0: 88e2 b93b 6bd0 9fbd ef8a ee3c 0d97 c43c
00000200: bb9e 9abd 93c2 a23c 04be 153d 8841 d9bb
00000210: 3570 bcbb 545b 8abc 3b39 e53c 4e0d 3c3d
00000220: 42a4 8d3d b742 5dbc 29c3 b93d 304f d9bc
00000230: 5248 943a 4cce afbd 88c7 fd3c 29a6 7a3d
00000240: d547 8cbb f02e 9f3d a586 303d 1de9 a93b
00000250: 6370 9b3d efe7 a8bc bfcc 71bd adc2 8cb9
00000260: 99d8 b93d 33dc 84bd 4cae b13c b037 483d
00000270: 4574 50bc 33cf 10bd 0b8e 9fbb edef 80bd
00000280: 9610 653d 0044 2bbd e24f 24bd d2e9 243d
00000290: 6006 ad3d 014e 073d f8a8 acbd 63a4 853d
000002a0: be50 95bd bd66 a63d 8936 e03c 4a2d 97bd
000002b0: cbb9 923d 5adc d03c 1196 9d3c 8610 59bd
000002c0: 4d01 7a3d 6fd2 5a3d 3b4f 063d 5d08 aebd
000002d0: b111 313c d903 013d 2f85 eebc b5aa 963d
000002e0: 3a62 953d 82e8 7e3d 92d8 a2bd 1970 e0bc
000002f0: 2105 5a3d d0d1 2dbd a47a 323d 67eb 6e3d
00000300: df6b e5bc 5a3c 5f3d 0530 a43d 60c2 fd3c
00000310: 676e 9abd 4f12 7abb 3b8e 6fbd a834 97bd
00000320: bfec 3cbd 02fc bd3c 9f42 51bd 5ac7 32bd
00000330: 42de a73d a2d4 ecb9 99ef 96bd 4e1d 10bd
00000340: a585 963d 01b4 3ebd 4358 7a3d 3017 19bd
00000350: b4e7 9d3d 3ddb a6bd f29c 06bc de70 a7bd
00000360: bd34 06bd e1f4 f23b 9ac5 b63c b931 0f3b
00000370: b921 483d 292e 593d 265a 20bd 3dcc 683d
00000380: f9cc a5bd 5660 7abd ce83 9fbc 785b 063d
00000390: 93a1 183d 7cd2 d73b a434 3e3d 0e36 7cbd
000003a0: 2487 3b3d 78d4 8d3d 60e6 0b3d 2e60 b0bd
000003b0: aa94 c6bc 8ebd 81bd be4c 4c3c 0895 8cbd
000003c0: 7ccc c2bc ee40 7abd 55ef e63c 752f 8d3d
000003d0: 1fd7 03bd 611b 8abd 682e 4fbc ea1a 7f3d
000003e0: c9df 94bd 776c c03d f7aa aabc 6038 a93c
000003f0: 6f9e f23c ca59 a5bd e93b aabd 1c71 4f3d
0.040869102 0.02032552 -0.08933858 0.018982332 -0.046952073 0.07134786 -0.03521243 0.033844296
-0.07043297 -0.092845686 0.040180974 0.008120264 0.07724633 0.11010318 0.025251145 -0.07501261
0.02581256 -0.035266332 -0.094195455 -0.070988655 -0.1096534 0.06514058 -0.033040736 0.008867695
-0.065957285 0.0010560794 -0.10834507 0.06679223 0.008284916 0.013994863 -0.050033174 -0.058960654
-0.063236214 -0.0053519397 -0.0583653 0.10524551 0.07876619 -0.03903295 0.08006754 0.09181849
0.030750057 -0.09643892 0.014664276 0.007424746 0.020343503 0.029460266 -0.0021530567 0.05608857
-0.093202725 -0.03345964 0.0021106354 -0.047537386 0.074400574 0.027038967 0.02182519 0.086427465
-0.002160873 0.009186697 -0.07703952 -0.089820705 0.034758534 0.026416272 0.006722499 0.08244823
-0.07464543 -0.00048551464 -0.030430011 -0.10725985 -0.109532245 0.076032594 0.07888216 0.042127166
-0.020067105 0.033844892 0.06928098 -0.051081203 -0.09583312 0.046221536 -0.035483703 -0.0018834698
0.024312712 0.030833766 -0.08129386 0.03233824 0.089464426 0.022193285 -0.07748674 -0.040336464
-0.006320601 -0.054846156 -0.01275367 -0.005091012 -0.014927507 -0.078232214 0.01643985 -0.04989548
0.012459873 -0.034322295 0.019924847 0.050467342 -0.029368173 0.088155694 0.064406775 -0.05419017
-0.072698615 -0.026539387 0.040934794 -0.0051225373 0.06889111 -0.009173563 -0.086996675 -0.0014079877
-0.049531635 0.08779523 0.0032753989 -0.022908507 0.039294735 -0.02261954 0.0047868653 -0.10261757
0.051655173 -0.08228931 0.08055168 -0.07247199 0.0056727566 -0.078034244 0.029118983 0.023997808
-0.07549807 0.01986817 0.036558166 -0.0066301264 -0.005750681 -0.016889252 0.027981391 0.045911126
0.06916095 -0.013504676 0.09070427 -0.026527017 0.0011313057 -0.0858427 0.030978933 0.06119362
-0.004281024 0.077726245 0.043097157 0.00518526 0.075897954 -0.020618407 -0.05903315 -0.00026847926
0.09074516 -0.06487312 0.021689557 0.048881233 -0.012723033 -0.03535385 -0.0048692278 -0.06295762
0.05592402 -0.041812897 -0.040115245 0.04026205 0.084484816 0.033033375 -0.08430666 0.06525495
-0.07290791 0.081250645 0.027369754 -0.07381685 0.071643434 0.025495697 0.019236596 -0.052994274
0.061036397 0.05342334 0.032790404 -0.08497689 0.010807441 0.03149781 -0.029116241 0.073567785
0.07294126 0.062233455 -0.07951464 -0.027397202 0.053227548 -0.04243642 0.04357399 0.058329966
-0.028005539 0.054500915 0.080169715 0.030976474 -0.07540589 -0.0038157885 -0.05848525 -0.0738309
-0.046124216 0.023191456 -0.051088925 -0.043647148 0.08196689 -0.00045171852 -0.073699184 -0.035184197
0.073497094 -0.046558384 0.06111933 -0.03737563 0.077102095 -0.08147285 -0.00821613 -0.081758246
-0.03276514 0.0074144457 0.02231102 0.0021849705 0.048860285 0.053022537 -0.039148472 0.0568354
-0.08095736 -0.06112703 -0.019472029 0.032802075 0.037263464 0.006586371 0.04643692 -0.061574988
0.045783177 0.06925291 0.03415525 -0.08612095 -0.02424081 -0.06334983 0.012469469 -0.06864363
-0.023779146 -0.061097078 0.028190294 0.06893817 -0.032187577 -0.06743503 -0.012645341 0.062281527
-0.07269246 0.09395688 -0.020833476 0.020656765 0.029616563 -0.080737665 -0.08312208 0.05064498

lstm.bias_ih_l0 f4 [512]
00000000: 9100 42bc 5074 9e3d 0385 013e 6969 83bd
00000010: 3cb1 bf3c 6635 9b3c f86d a73d da54 3bbc
00000020: d518 9bbb ae0f 353d 7775 cd3c d8ff 9b3d
00000030: 19f7 9a3d 8eda bbbb e041 c5bd a116 d83c
00000040: 8c8b 78bc 1eb9 2ab8 a66a 803d e3b3 3fbc
00000050: 19fe 62bd 3aba 0c3d 2bee 49bd c36f a53d
00000060: 7805 9dbc 7b80 f9bc 38b6 5fbd e6ec e3bc
00000070: 79f1 d7bc 54a4 bf3d c10c fb3c 08f4 25bc
00000080: d3ff aebd 448c 5a3c 694b 31bd c44d a33d
00000090: 93a2 11bd d492 3cbd e1a8 8d3d f2dc 29bd
000000a0: f482 0d3d 67f9 35bd 5c5c 47bc bdca 64bd
000000b0: 945d 713d 3c36 8abc dcb1 efbc 9c10 b43d
000000c0: 4edc b1bd a4d5 b93a c90c 05bc f32b a33d
000000d0: 6543 3a3d f2e0 39bc d693 953d 3505 47bc
000000e0: 4955 903d 5ad8 99bd 7957 943c 3ee0 2a3b
000000f0: 8ae2 8cbd 1987 243d 1bea 603d 3cbc 36bd
00000100: fb61 8b3d f76f 563d 4ad2 a03c df55 9dbd
00000110: 8863 9c3c 9568 57bd 26e5 b63c a7b1 e63c
00000120: 41c4 983d 5bac e13c f1ff d13b 6ccb dc3a
00000130: 4fc5 8dbd 0624 a03d f28e 093d 03c2 3cbd
00000140: 2317 2b3d 6941 983d 7971 843c 5c69 003d
00000150: b6ef 8b3d 4ffc b6bc 86a8 ac3c 20fa 593d
00000160: 973c 8e3d d590 c03b 1a0b a73c efca 4d3a
00000170: c32d 4fbd 850f 03bd 19a6 7dbd a41a 8a3d
00000180: 679c da3c 776b ca3a f694 7abb 615d 94bd
00000190: b076 653d baef 33bd b99e 83bb 3ea9 3c3d
000001a0: 5456 713d bd7f 603d 9fc6 933d 8a30 8abd
000001b0: 0dba bdbc 96af 85bd beb3 743d e0d9 23bd
000001c0: 1d98 983d 4f7c b33d d079 563c 8dfd 22bd
000001d0: 78d3 f83c 3917 5d3d 4671 f23c 81f6 883d
000001e0: bf63 74bd 75d2 01bd ce6b 103d 4f19 e2bc
000001f0: 8619 953b e764 dfbc 93da 6f3d 2565 a1bc
00000200: 3598 333d 555a 0fbd 4bed 113d 93a3 083d
00000210: 2b6c c03c 02c1 17bd 9bcd 973d 98b4 433c
00000220: be69 803b 582c a53b 5e79 c63c 2429 913c
00000230: 9dc7 a53c ea09 fe3c f7f5 bdbd 7866 7d3c
00000240: 3ad8 d43b 8169 5e3b 1434 b2bd 484d a0bb
00000250: 9cf4 243d 9166 a1bb eefc e5bc c6c6 31bb
00000260: 6ace 11bd 70fe f3bc c6c0 a53d 166f 6cbd
00000270: 1f87 8f3d 5e01 50bc 2fbc b9bc 8c96 ab3d
00000280: 2b16 80bd 06c9 4fbd 1d90 8c3d cf25 81bd
00000290: 3948 da3c 25df d43c 7da7 40bd 4b92 c93b
000002a0: 0db5 19bd 45b7 033d f4ee 4fbd b6db b7bd
000002b0: da44 94ba 9f41 583d 2887 7d3c af79 983d
000002c0: e5a2 863d d283 5d3b fdf3 a03d d54e 0d3c
000002d0: d341 31bc e7aa 043e 0aaa 0d3c 3572 80bc
000002e0: 1784 7abd 0051 dabc 9b39 e6bc a242 1a3c
000002f0: 59b8 4f3c 3c1e 85bd ff51 9ebd b031 4c3c
00000300: b7c7 b73d 12a1 c33d 5372 c33c 9fd0 e83d
00000310: 0b9f 6f3d 74cd bdbd 8e2f b7bc 949f dfbc
00000320: 7ece d33c b44c 77bc 659d bf3c 6e8b d53d
00000330: 359c a03d 7c77 913d c7fe a43d f429 b1bc
00000340: aa4f f7bc e4d6 933d 3fe5 423d f051 ed3c
00000350: 9625 a8bd 3024 e63d 5b95 44bd 1073 2cbd
00000360: e437 e1bb 4370 78bc bfc6 1f3c fa80 a83d
00000370: 0f1f b1bc 91b0 8cbc f58c 383d 0092 a83c
00000380: e3e9 a93c 7f25 ef3b b656 a63c 4e33 bfbb
00000390: 4ec1 b5bd 3e0e 5cbd 5ed3 9e3d 0170 3bbd
000003a0: ab3b 863d 3e13 10bd ac93 683d 9744 523c
000003b0: 5478 e73d 1068 ba3d d73f bf3c a84a d93d
000003c0: 8ff2 a43c fb06 363d 9e7c b53c c816 4bbd
000003d0: 92c7 1b3d 6e27 853d 3d40 77bd 841e b0bd
000003e0: e281 6f3d c7ad 773d 5e2c c63d c710 d43d
000003f0: 74c8 873d 1050 953d b899 483d fe0d 573c
-0.011840955 0.077370286 0.12648396 -0.0641659 0.023399942 0.01894636 0.08175272 -0.011433804
-0.004733185 0.044204406 0.025080426 0.07617158 0.075666614 -0.005732841 -0.09631705 0.026377978
-0.015169989 -4.0703562e-05 0.062703416 -0.011700603 -0.055418108 0.034357287 -0.0492994 0.080779575
-0.019167647 -0.030456772 -0.054617137 -0.027822923 -0.02636026 0.09357515 0.03064573 -0.010128982
-0.08544888 0.013339106 -0.043284807 0.07973817 -0.035555433 -0.046038464 0.06916977 -0.041470475
0.034548715 -0.0444273 -0.012168016 -0.05585741 0.058927134 -0.016871564 -0.029259615 0.087922305
-0.08684598 0.001417805 -0.008120724 0.07967367 0.04547443 -0.011345135 0.07303588 -0.012147238
0.07047517 -0.07511969 0.018108116 0.00260736 -0.068791464 0.0401679 0.05491076 -0.044613108
0.06805798 0.05235287 0.019631524 -0.07682394 0.019090429 -0.05258997 0.022326063 0.028160883
0.074593075 0.027548006 0.0064086844 0.0016845292 -0.06922399 0.07819371 0.03358359 -0.04608346
0.04177011 0.07434351 0.01616739 0.03135048 0.068328306 -0.022337107 0.021076452 0.053217053
0.0694515 0.0058766403 0.020391036 0.0007850369 -0.05058075 -0.031997222 -0.06192598 0.067433625
0.026685907 0.0015443404 -0.003823576 -0.07244373 0.056021392 -0.043929793 -0.004016724 0.04605984
0.05892022 0.05480932 0.07215618 -0.06747539 -0.023160005 -0.06527631 0.059741728 -0.040002704
0.07450888 0.08763944 0.013090566 -0.039792586 0.030374274 0.053977225 0.029595029 0.06687642
-0.059665438 -0.031694848 0.03525906 -0.027599959 0.004550162 -0.027269794 0.058558058 -0.01970155
0.043846328 -0.034998257 0.03562669 0.03335912 0.023489079 -0.0370493 0.07412263 0.011944912
0.0039188555 0.0050406866 0.024227794 0.017719813 0.020236785 0.031010587 -0.0927543 0.015466325
0.006495503 0.0033937397 -0.08701339 -0.004892025 0.04027234 -0.004925557 -0.028074708 -0.0027126535
-0.035597242 -0.029784411 0.08093409 -0.057723127 0.07008194 -0.012695638 -0.02267274 0.08378324
-0.06254228 -0.05072882 0.06863425 -0.063060395 0.026645767 0.02598531 -0.04703473 0.0061514727
-0.03752618 0.0321572 -0.050764993 -0.089774534 -0.0011312023 0.052796956 0.015474118 0.07445084
0.065740384 0.0033800495 0.07859037 0.008624752 -0.010818916 0.12955819 0.0086464975 -0.015679458
-0.061161127 -0.026649952 -0.02810364 0.009415301 0.012678229 -0.064999074 -0.07730483 0.012463018
0.089736395 0.09552206 0.023858225 0.11367916 0.058501285 -0.09267703 -0.022361543 -0.027297772
0.0258553 -0.015093971 0.023390481 0.10426985 0.07842294 0.07102868 0.080564074 -0.02162645
-0.030189354 0.072187215 0.047581907 0.028969735 -0.08210294 0.11237371 -0.047994 -0.04210192
-0.0068731178 -0.015163484 0.009751975 0.08227725 -0.021621255 -0.017174037 0.045056302 0.02057743
0.020741409 0.007298171 0.020305019 -0.0058349734 -0.088747606 -0.05372452 0.07755159 -0.045761112
0.065543495 -0.0351746 0.056781456 0.012833736 0.11302248 0.091018796 0.02334587 0.10609943
0.020135192 0.04444025 0.022154149 -0.049582273 0.038032122 0.06501661 -0.060363997 -0.085995704
0.058473475 0.06046846 0.09676431 0.103547625 0.0663003 0.07290661 0.048974723 0.013125895

lstm.bias_hh_l0 f4 [512]
00000000: c7fd 643d c0ab 8e3c f5a3 b73d 65e5 3cbd
00000010: 1f40 cebc 38d7 f5bc f867 f13d 6576 2abd
00000020: 1d64 1c3c c159 243c 28cf ab3c 7631 d63d
00000030: 5bc1 a03c ccee c73b 2310 59bd ddd0 eb3a
00000040: 2b2a 823d 2371 c33d 04ad b4ba eb49 93bc
00000050: dbfe 85bd 2e32 8bbd a764 3bbd 1911 a03d
00000060: 2c25 d03c 7009 56bd 1f5c cabb ced3 a8bc
00000070: 9305 9d3d 9241 3fbd 0f17 96bd 8ae8 6d3a
00000080: 1b1d 9b3c 9997 933d 5ac3 40bd ef4c 49bd
00000090: cc73 3fba b52f 35bd 16ea 84bd 5ee2 bb3b
000000a0: b98f e73c d5d4 e7bc 3e99 b1bc 6d02 6dbd
000000b0: 774e 47bd d264 23bd 3104 7e3d 6015 be3d
000000c0: 0a79 d5bc 5dd2 29bd 33f3 883c 2844 69bd
000000d0: 3d15 9f3c 8059 2f3d d102 923d 165a 1c3d
000000e0: 7629 09bc 8d22 15bd cb6d 12bd a1b1 713d
000000f0: 729c f73b 8bb0 643d 86cc fbbc 7f09 313d
00000100: 9d8a 1bbc 9c7e 3b3d 603d 9ebc 798c 5abc
00000110: e7d1 adbd d6cc 263d f734 ab3d 635b e83c
00000120: 2502 bdbd 1f83 51bd a997 a83d 239e 213d
00000130: 20fc b2bd 57bb bbbd 0255 c53d 3028 a2bc
00000140: bfa5 a4bd 2d11 9c3d f7f2 ad3d 53e5 a13d
00000150: 56f2 723c 46b5 9e3c ec3d 82bd d8b5 ad3d
00000160: d98c 373d a5d2 423d 93d5 72bd 6c2f 913d
00000170: f27c 233d f695 4dbd 5a60 a8bd e9c4 4a3d
00000180: ecbc b83d 650e c13b 75d2 e23d 78f3 89bd
00000190: 952a 97bd 7931 6ebd 259c da3d c7d8 013d
000001a0: da07 4ebd cd8e 3d3d f299 023d 7c79 cc38
000001b0: 2700 443d 5d53 823d 8acf 513d b73e e83d
000001c0: c78a 3cbd ab4f 3cbd 6684 adbd 4abe 67bc
000001d0: 5752 313d 353e 923d 3fc3 cabd c2f9 2cbd
000001e0: 01ce adbd 0892 ccbc 4a9a 493d e3d7 083d
000001f0: 0242 e0bc b35a 0abd 7224 43bd ab7b 85bc
00000200: 07d6 b6bd 924d 9b3d fc93 ab3d 5458 8ebd
00000210: b9a1 253d 9dc3 81bc 0ac4 da3d 07ad dabc
00000220: fef8 bc3c 8f85 29bd b313 8dbd e337 4b3c
00000230: c241 88bd b99a 873d e913 873c b4cf c5bc
00000240: 4a6c a2bc 87f7 63bd ec5b debc 5c63 c63d
00000250: e6a4 083d 5c2b 663c 639f 0bbd f340 aebb
00000260: 28ff ae3c 7e5e 283d 072c 1a3d 8ce0 31bd
00000270: f6b6 0b3e 6f7b 083d 6e87 043d ca5c 2dbd
00000280: a345 a03d f2bb d4bc a8bc f33c 85aa 74bd
00000290: 102a 7a3d b96f fe3c df97 2cbd d232 423d
000002a0: f824 0b3e 6295 8f3d f0a7 233b c537 233b
000002b0: 395b 123d 3e21 013e 27f2 2bbd 40b4 fe3d
000002c0: dca6 163d caef 093d 1c90 7e3d eab6 ea3a
000002d0: 001b da3d 5c4b 5bbc 6037 25bd 52cf 19bd
000002e0: 06fd dd3d b17f 813d ad2d 2bbd fb95 e83c
000002f0: b3e0 95bd 5e0d 283d 135e 87bd bd16 9d3d
00000300: a964 8d3c 0781 72b9 0f91 bb3c 5b92 6dbc
00000310: b0ae c53c 10b6 98bd d149 423d 5408 30bd
00000320: 635f 033c 088e 513d eda4 b63d f160 593d
00000330: 5990 a8bd 2310 7b3d 7b10 41bc 6232 113b
00000340: 6042 143d 416e ed3d 3baf 193d 3b07 1fbd
00000350: 4ae3 4abd 3120 833d cb66 14bd a4df 93bd
00000360: 12ef fcba 9a29 b13d 9c68 98bd a2ed 07bd
00000370: 3d68 633d e0b7 b7bd c659 83bc 1ab1 1cbd
00000380: d04e 43bd 9571 533c a48e 503d 7bfc db3a
00000390: 4ad9 b93c 23e8 a6bb d924 c13d 1c4c 90bc
000003a0: 892a 9a3d 0a4c 3ebd eee3 513d c4d6 18bd
000003b0: d948 8e3d c4de de3c e6a9 a83d ef91 f8bc
000003c0: 8aa5 8e3d 3fe6 ec3c 3f01 9d3d 1de0 983d
000003d0: f776 3e3d ef1c 88bd 6611 3bbd bee1 75bd
000003e0: 141a 6a3c 12f9 98bd feab b43d c79a ea3d
000003f0: 43c4 91bd 7329 22bd 2f69 b2bd 61fd f8bb
0.055906083 0.017415881 0.08966819 -0.046117205 -0.02517706 -0.03000985 0.117874086 -0.041616816
0.009545353 0.010031165 0.020972803 0.10458653 0.01962345 0.006101465 -0.052993905 0.0017991323
0.06355699 0.095430635 -0.0013784473 -0.017979583 -0.065427504 -0.067966804 -0.045750286 0.07815761
0.02540835 -0.052255094 -0.0061755325 -0.020608809 0.07667079 -0.046693392 -0.07328617 0.00090754835
0.018934777 0.07206649 -0.0470613 -0.049145635 -0.0007303327 -0.04423495 -0.06489961 0.005733772
0.028266774 -0.028299728 -0.021679517 -0.05786364 -0.048658814 -0.03989107 0.062015716 0.09281421
-0.026058692 -0.041460384 0.016717529 -0.056949764 0.019419307 0.042809963 0.071294434 0.03817185
-0.008371701 -0.036409903 -0.035749238 0.05900729 0.0075564915 0.055832427 -0.030737173 0.043221947
-0.009493497 0.04577504 -0.019316375 -0.013339155 -0.08487301 0.04072269 0.083597116 0.02836389
-0.09228925 -0.051150437 0.08232052 0.03945745 -0.08739495 -0.091665916 0.096353546 -0.019794554
-0.08039426 0.076204635 0.084936075 0.07905068 0.014828285 0.019373547 -0.06359467 0.084819496
0.044812057 0.047564168 -0.05928571 0.07089123 0.03991408 -0.050191842 -0.082215026 0.049504194
0.09020409 0.0058916085 0.11075298 -0.06735891 -0.07381169 -0.05815265 0.106743135 0.031700876
-0.050300457 0.046278764 0.031885095 9.750106e-05 0.047851708 0.063635565 0.051223315 0.11340087
-0.046030786 -0.045974415 -0.084725186 -0.01414449 0.043291416 0.07140771 -0.099005215 -0.042230375
-0.08486558 -0.024971977 0.049219407 0.03340901 -0.027375225 -0.033777904 -0.04764218 -0.016294321
-0.08927541 0.07583155 0.08377835 -0.06950441 0.040437434 -0.015840346 0.10681923 -0.026693834
0.023067947 -0.041387137 -0.06888523 0.012403461 -0.06653167 0.06621308 0.016488986 -0.024146892
-0.019827027 -0.055655982 -0.027143441 0.0968692 0.033360384 0.014048424 -0.03408755 -0.005317801
0.021361902 0.04110574 0.037639644 -0.043427035 0.13644013 0.03332084 0.03235572 -0.04232482
0.07825782 -0.025968526 0.029753044 -0.059732933 0.06107527 0.031059133 -0.042137023 0.047411747
0.13588321 0.070109144 0.0024971925 0.0024905067 0.035731528 0.12610337 -0.04197898 0.12436724
0.036780223 0.033675946 0.062149152 0.0017907296 0.10649681 -0.013384666 -0.040336013 -0.03755123
0.10839276 0.06323183 -0.041791607 0.028391829 -0.073182486 0.041028373 -0.0660974 0.076703526
0.017259913 -0.00023126985 0.022896318 -0.014500226 0.024131149 -0.07456601 0.047433678 -0.042976692
0.008018347 0.051160842 0.08918176 0.053070966 -0.08230657 0.061294686 -0.011783714 0.0022155275
0.036196113 0.11593295 0.03752063 -0.038825255 -0.049533166 0.064026244 -0.036230844 -0.072203904
-0.0019297323 0.08650513 -0.07441828 -0.03318561 0.05551933 -0.08970618 -0.016034018 -0.038254835
-0.047682583 0.012905498 0.050917283 0.0016783619 0.02268662 -0.005093591 0.09430856 -0.017614417
0.07527644 -0.046459235 0.05124276 -0.03731419 0.06947488 0.027205832 0.082355306 -0.030343024
0.06965168 0.028918384 0.07666253 0.07464621 0.046500172 -0.06646144 -0.04567089 -0.060029738
0.014288444 -0.074693814 0.088218674 0.11455303 -0.07117512 -0.03959031 -0.087114684 -0.0075985645

fc.weight f4 [1, 128]
00000000: 9b83 a33d faa8 aa3d 9a1c b3bd 3dd1 b83c
00000010: 08bd 853b 63d2 aa3d 142c 10bd 6ece 96bd
00000020: 5746 84bd 40d3 0fbd d476 6fbd 6dd3 90bb
00000030: 210e 683d 540e 9c3d 334b 4f3c 0cac 863d
00000040: ca21 3bbc 20cc cbbb 0897 47bd ebb4 00bd
00000050: 0cd0 4bbd b162 373d bab6 38bb 0eff d1bb
00000060: 5f85 6c3c 6f0f 013d 62ee 9bbd 1a32 a83d
00000070: 09fd 69bc b7a5 a7bd f105 9d3d a801 11bd
00000080: d285 a73d 475b 5a3d 68f5 453d 87bb 4b3c
00000090: f18b 69bb 1b1c aebd b657 8e3c 0b4f 733d
000000a0: 307d f33c b026 95bd 2abe 993c bc12 023d
000000b0: 15ee 693d 1f69 03bd ad0c 88bd cb47 813c
000000c0: 0837 41bb 9c77 7e3d abc0 81bd 3bf4 75bd
000000d0: 71f9 82bc 780e 9d3d 860b 773d 84f1 ad3c
000000e0: 108e 563c 525d 8f3c cfbb eebb 7289 3ebd
000000f0: ad4b f13c f0d6 a7bd eea1 853d 8c6d d8bb
00000100: 9096 96bd f995 aa3d bad9 8d3c 8486 2dbd
00000110: f022 a5bd 8c62 a9bd 2687 033d 02a0 573d
00000120: b61b 5a3d 1e48 863d e487 a1bd 0548 b3bd
00000130: 7e61 3bbd a153 eb3c 66e4 d7bb 08c6 963d
00000140: 8a2b 82bd 1407 963c 0a0f 52bd 9b25 aabc
00000150: 5ac1 9dbc b9bd 263d 730f bf3c 2d4a 0cbd
00000160: bc8d 39bd e1e4 673c e49e cdbc cec9 533d
00000170: 5ba4 3c3d 8f4c 94bc 8e25 373d e259 8ebd
00000180: a931 32bd 5f2b 8ebd af11 a93d cc49 fcbb
00000190: 511a 09bc f906 56bd 61c7 dbbc 5fc6 673c
000001a0: 0ffd 73bd 927e 483d a558 9cbd 7374 b0bc
000001b0: a775 8c3d 6754 3bbd a59c 2dbd 1236 1a3c
000001c0: 91c0 a1bd 5f6a d23c f9a9 173c 39e0 c43c
000001d0: fcae 32bd c90b 80bd b81d a13b 2f06 bfbc
000001e0: 2dd9 4e3b 8f53 39bd 2a89 803c 228d 5ebd
000001f0: ad4a 72bd 0632 a33c 3fef 9e3d 9ddb 4d3d
0.07984086 0.08333011 -0.0874569 0.02256071 0.004081372 0.08340909 -0.035198286 -0.07363592
-0.06458729 -0.035113573 -0.058462933 -0.004419735 0.0566541 0.076199204 0.012652206 0.06575784
-0.01142163 -0.006219402 -0.04872802 -0.031422537 -0.049758956 0.044771854 -0.0028185085 -0.0064085787
0.014436095 0.03150886 -0.07613827 0.08212681 -0.01428152 -0.081859045 0.07667149 -0.03540197
0.08179821 0.053309705 0.04832974 0.012434847 -0.003563639 -0.085014544 0.017375808 0.059401553
0.02972278 -0.0728277 0.018767435 0.031756148 0.05711182 -0.032082673 -0.06643043 0.015781304
-0.0029482264 0.062125787 -0.063355766 -0.06004737 -0.015988084 0.07668775 0.060313724 0.021233328
0.013095394 0.017500553 -0.007285572 -0.046517797 0.02945503 -0.08195293 0.06525026 -0.006604856
-0.07352936 0.08329386 0.017315734 -0.042364612 -0.080633044 -0.082707494 0.03211131 0.05264283
0.053249083 0.06556724 -0.07887247 -0.08753971 -0.045747273 0.0287264 -0.0065885065 0.0736199
-0.06355961 0.018313922 -0.051283874 -0.020769885 -0.019257236 0.040708277 0.023322796 -0.034250427
-0.045301184 0.01415369 -0.025100179 0.051706128 0.04605518 -0.018102912 0.04471355 -0.069507375
-0.04350439 -0.06941866 0.08255326 -0.007699227 -0.008368091 -0.052252743 -0.02682847 0.014146416
-0.059567507 0.04894883 -0.07634095 -0.021539902 0.06858378 -0.04573479 -0.042385716 0.009412305
-0.07898057 0.025685487 0.009256833 0.024032699 -0.04362391 -0.06252248 0.004916873 -0.023318378
0.0031562552 -0.045245703 0.015690405 -0.054333813 -0.059153248 0.019921314 0.07760476 0.050258268
