scripts/IA_TCC/src/resultados/checkpoints/modelo_treinado.pth (torch, 545721 bytes, 6 tensors)

embedding.weight f4 [177, 100]
000000 0f c2 25 be 25 dc 98 be 7e 32 ca be 9e f0 ef 3f
       -0.16187309 -0.29855457 -0.39491647 1.8745306
000010 5b bb 3f bf 3f fc 83 bf ce 39 e1 3e 78 9e 82 3f
       -0.74895257 -1.0311354 0.43989414 1.0204611
000020 2a 34 57 bd d0 a8 ca be 7f 92 2e bf 47 b1 07 3f
       -0.052539982 -0.3958192 -0.68192285 0.5300488
000030 a5 06 1d 3f 2a eb 06 3f 95 ff 4e 3f 46 dd 57 bf
       0.61338264 0.5270258 0.8085874 -0.8432201
000040 66 3c c4 3e 43 89 16 3e 22 a7 06 bf 11 bc d1 be
       0.3832733 0.14700799 -0.52598774 -0.40963796
000050 c7 f9 0d bf 2e 81 20 be 73 94 81 3e cd 75 49 be
       -0.55459255 -0.15674278 0.2530857 -0.19673844
000060 c3 5c 22 bf 1d 5f e4 bf e5 d5 1a 40 34 cf 39 be
       -0.63422793 -1.7841526 2.419305 -0.18145448
000070 5f 8a 28 3f 5a 2b 75 bf 90 74 aa 3f 0c 84 ba 3f
       0.6583614 -0.95769274 1.3316822 1.4571548
000080 42 62 72 3e b7 fe 23 bf d9 e3 fa be da 3c 5b bf
       0.23670295 -0.6406054 -0.4900196 -0.8563973
000090 82 cf f7 3d f0 4d 3e 3f f9 69 7f 3e 76 be b0 3e
       0.12100126 0.74337673 0.24942769 0.3452031
0000a0 16 a8 99 3e 00 c7 ab 3f 5e 97 ed bf 5b cf a3 3f
       0.30011052 1.3420105 -1.8561819 1.2797655
0000b0 ce 4c 1c 3f a1 a7 3a 40 8f b3 4e 3f 18 50 70 bf
       0.61054695 2.9164813 0.80742735 -0.93872213
0000c0 48 80 e3 bd 33 61 b7 bd c8 ba cf 3e 8e f8 bd be
       -0.11108452 -0.08954086 0.4057219 -0.37103695
0000d0 73 8b 3b bf cf 51 af bf cb 92 2d be 63 0c 12 bf
       -0.7325966 -1.3696841 -0.16950528 -0.5705015
0000e0 d0 a8 92 be 25 8c ca 3c 9e af 1a c0 9e d1 34 bf
       -0.2864442 0.02472503 -2.4169688 -0.7063235
0000f0 16 4f 8a 3f e3 c7 dd be 62 26 b8 bf 4f e6 84 bf
       1.0805385 -0.43316564 -1.4386714 -1.0382785
000100 2c 2c 1e 40 58 f9 97 bf f3 e9 48 3e fa 08 2e bf
       2.471446 -1.1872969 0.19620495 -0.6798245
000110 52 77 e3 3f b5 c0 14 bf f6 46 d6 3e 04 b8 08 bf
       1.7770789 -0.5810655 0.41851014 -0.53405786
000120 c0 a0 39 bf 81 6a aa bf 27 c1 62 3f e0 33 98 be
       -0.7251091 -1.3313752 0.8857598 -0.29727077
000130 f5 d2 8b 3d 71 8f c2 bf 35 13 3b 3f f4 4b 95 3f
       0.06827346 -1.5200025 0.7307618 1.1663804
000140 73 0e b0 3f 7c 48 ce 3f dd 6e a7 be e3 1e b8 be
       1.375441 1.611587 -0.3270177 -0.35961065
000150 56 8e 08 3f 5e d5 52 bf 11 77 99 be d1 68 85 3d
       0.5334219 -0.8235682 -0.29973653 0.06514133
000160 9e 3b 07 be 33 a8 f7 3d 8a 72 d3 be cd a2 92 3f
       -0.13206336 0.12092628 -0.41298324 1.1455933
000170 88 9a 4b 3f b9 b4 d7 3d 6c fc ac 3f e9 b0 39 bf
       0.7953267 0.10532517 1.3514533 -0.7253557
000180 ab e3 e2 3d 72 a9 84 be eb a6 d9 bf 12 c5 96 3f
       0.110785805 -0.25910527 -1.7004064 1.1778891
000190 90 fe 15 c0 7f ad 90 3d 99 0b ff 3e 0c 95 90 bc
       -2.3436623 0.07064342 0.49813536 -0.017649196
0001a0 37 1d de be 9f 1d 71 3e c7 57 04 be 38 0b 1e 3e
       -0.43381664 0.23546456 -0.1292411 0.15433967
0001b0 19 39 6e 3e 8d 0f 9a 3f 38 8f a5 bd 85 ff 02 3f
       0.23263969 1.2035996 -0.080839574 0.5117114
0001c0 a7 c7 0e 3f f8 9d d7 be b3 31 34 3e 7f 1b dc 3f
       0.55773395 -0.42112708 0.17597084 1.7195891
0001d0 a8 4f 8f bf 55 f3 d9 be 79 09 c5 3e 65 8e 98 bf
       -1.1196184 -0.4256846 0.3848379 -1.1918455
0001e0 9b 03 0d 3f 73 51 27 bf d1 5f c5 3b 22 12 39 bf
       0.55083627 -0.65358657 0.006023385 -0.72293293
0001f0 dc f7 42 bf cd 41 2b 3f 82 c1 bd 3f 89 14 08 be
       -0.76159453 0.6689728 1.4824679 -0.13289084
000200 22 03 f9 be 39 07 ab 3c 2d 3a cb bf 8b b6 b1 3d
       -0.48635203 0.020877467 -1.5877129 0.086773954
000210 2e eb 9f bf 9c 85 16 c0 77 9e 32 bf 4e 01 1c be
       -1.2493646 -2.3519049 -0.6977305 -0.15234873
000220 35 21 18 3e 7b 6e 5f bf c7 17 6d bf 8e d5 54 3e
       0.14856417 -0.87277955 -0.92614406 0.2078459
000230 9f d7 11 bf eb 09 8f 3f e4 9c a0 be f1 7e 51 3f
       -0.56969637 1.1174902 -0.31369698 0.8183432
000240 b2 47 cb bf 7c c4 a2 3e 71 cc bf bd cd 94 0d c0
       -1.5881255 0.3179053 -0.09365166 -2.212207
000250 a8 a7 50 c0 33 0c 06 40 fd fa af bf 0c 39 d5 be
       -3.260233 2.0944946 -1.374847 -0.41645086
000260 aa 0b 80 3e ad c7 1d 3f 4f 31 e5 3f 28 59 fc 3d
       0.250089 0.61632806 1.7905673 0.12321693
000270 b7 76 c2 bf 28 e4 9b 3e b0 38 b1 3e 7b 32 2c 3f
       -1.5192479 0.30447507 0.34613562 0.6726453
000280 e9 66 82 bf 3a 44 a2 3f 7a 5d 86 bf be 09 42 3f
       -1.0187656 1.2677071 -1.0497277 0.75796115
000290 31 bf dd 3d 1c 9e 8b bf 07 21 e3 3e bd 1b ab be
       0.108274825 -1.0907626 0.44361135 -0.334196
0002a0 8b 1e 04 40 91 c7 75 be 9a 08 80 be 71 c5 7a bd
       2.0643642 -0.2400191 -0.25006562 -0.06122345
0002b0 ff 5b dc 3e ea 76 ac be 1b 8a 14 c0 0c 70 a2 3e
       0.43038937 -0.33684474 -2.3209293 0.3172611
0002c0 3d 62 2e be 07 7e 19 3f c6 99 fb 3f 5c 53 15 bf
       -0.17029662 0.5995793 1.9656303 -0.5833032
0002d0 74 bb 7e 3e 7b 70 70 3e 9e 89 17 3f d0 12 65 3e
       0.24876195 0.23480408 0.5919436 0.22370458
0002e0 63 ff 9a 3e d6 5f 28 bf 4b 0f 42 3f 73 30 d6 3e
       0.3027297 -0.65771234 0.75804585 0.4183384
0002f0 a0 9b 17 bf 38 73 1b be 4c 71 7b bf 55 3b 81 3f
       -0.5922184 -0.15180671 -0.9821975 1.0096232
000300 5c d5 5a 3f b1 01 13 bf e9 18 07 bf 72 58 59 3e
       0.8548181 -0.57424456 -0.52772385 0.21225145
000310 45 58 08 c0 06 5c b2 bf 3a b6 93 3f d8 70 c1 be
       -2.1303875 -1.3934333 1.1539986 -0.37781405
000320 1b d4 b3 3f 1b 95 8b 3e d0 90 6f 3e 06 b2 b9 3e
       1.4049104 0.27262196 0.23395085 0.36268634
000330 f8 fa 15 40 dc 90 9e 3e 70 19 cb 3f c2 39 71 be
       2.343443 0.30969894 1.5867138 -0.23557189
000340 4a 44 00 be 15 19 6c bf 6d 52 1b bf a8 5a c2 bf
       -0.1252605 -0.9222577 -0.60672647 -1.5183916
000350 3f 88 81 bf 71 ed 24 3f b4 21 e4 3e 99 ce a6 bf
       -1.0119704 0.64424807 0.44556963 -1.3031799
000360 59 51 82 be 71 ce 06 bf 8c 92 89 3e 74 c6 80 be
       -0.25452688 -0.52658755 0.2686962 -0.25151408
000370 f2 d6 42 be e2 5b 3a bf 30 2b 2a 3f 5a e2 35 3f
       -0.19027308 -0.7279645 0.6647215 0.7104851
000380 39 dc 12 c0 e3 12 09 3d f7 a6 4f 3f 7d cb eb 3d
       -2.2946913 0.033465277 0.81114143 0.11513422
000390 2b d2 67 3f b6 bd 1a 3f 04 fd e2 bd c6 cc 65 bf
       0.90555066 0.60445726 -0.11083415 -0.89765584
0003a0 5d 01 b5 3d 48 f8 30 bf 7e b7 8f bf 02 1d 0d 40
       0.08838151 -0.6912885 -1.1227872 2.2048955
0003b0 fd 88 2d 3f ae 2c 97 be 7b e1 da 3e b2 e4 a3 bf
       0.6778715 -0.29526275 0.42750153 -1.2804167
0003c0 76 23 fb bf fb 44 46 3f fd ba 2d be e7 2b 96 3e
       -1.9620197 0.77449006 -0.16965862 0.2933037
0003d0 58 52 e4 be 0f ed 72 bf cc d4 33 bf 20 a7 57 3e
       -0.44594073 -0.9489297 -0.7024658 0.21059847
0003e0 72 08 a8 bf fc 53 9c be 6f dd 3b 3f 0f 94 78 3f
       -1.3127577 -0.30532825 0.73384756 0.9710092
0003f0 92 b0 ef be b9 c5 e0 3e 8d c5 a8 3d ae 28 1e 3f
       -0.468144 0.4390085 0.08240805 0.6178082

lstm.weight_ih_l0 f4 [512, 100]
000000 50 fc cb 3b c6 b3 0e bc 5c 45 a3 3d b3 a5 80 3d
       0.0062251464 -0.0087098535 0.079722136 0.062816046
000010 ea a8 ce 3d cc b2 63 bd 94 77 4b 3d 23 c7 cc bd
       0.100908116 -0.055590436 0.049674585 -0.0999892
000020 ce 29 e9 3d cc 9b bb 3d 44 23 db bc 31 0a 95 bd
       0.11384927 0.09160575 -0.026750214 -0.072773345
000030 e3 99 ae bc 7a d7 64 bd f8 7c 92 3d 3c e6 86 bc
       -0.021313613 -0.055869557 0.07152742 -0.016467206
000040 87 b6 46 3b 0c 40 76 3d 31 79 64 bd 96 22 4d bc
       0.0030321197 0.060119674 -0.05577964 -0.012520453
000050 50 21 56 bd 63 4a 89 bd 89 63 4e bd 5c 35 15 3b
       -0.052277863 -0.06703641 -0.050387893 0.00227674
000060 10 37 7a bd d8 c2 a9 3d ab 36 39 3d bc 89 51 3d
       -0.061087668 0.082891166 0.04521815 0.051156744
000070 94 b3 63 3c 11 0e 8c 3d 8f a7 55 3d c2 19 16 3d
       0.013897795 0.068386205 0.05216175 0.03664566
000080 9c 7a 07 bd 1f d3 26 3d 4b 7f a2 3c 71 d4 6b 3d
       -0.033075914 0.040728685 0.019836089 0.057575647
000090 84 fe 99 bd 47 cf 4f bd 63 e7 1c 3d 1a a7 a2 bd
       -0.07519248 -0.050734784 0.038306605 -0.07942028
0000a0 ef 35 a3 3b 76 39 e2 ba e2 ff 8e bd 70 45 9d bd
       0.0049807946 -0.0017259556 -0.069823995 -0.0767926
0000b0 43 2e ca 3b 66 bf 84 3d ca 79 7f bd 5b 8d 0c bc
       0.0061700656 0.06481819 -0.062372006 -0.008578624
0000c0 95 71 0b bc 5f c6 1a 3d f4 4d 93 3b 64 b1 dd 3b
       -0.008510967 0.037786838 0.0044953767 0.0067655314
0000d0 b1 cf 92 bb 52 6d d4 3d 91 cc dc 3c c5 2c be bc
       -0.004480325 0.10372414 0.026953014 -0.023214707
0000e0 f8 73 98 3b c5 42 76 bc f7 30 ba 3d a3 bd 4d bd
       0.0046524964 -0.0150305675 0.090913706 -0.05022968
0000f0 19 13 ab bc c9 4d 75 3d 54 57 a9 3c 52 50 7d bd
       -0.02088313 0.059888635 0.020671524 -0.061844178
000100 85 cc 9b bd c3 00 7c 3d 9e e7 03 3d 2d fc 89 3d
       -0.076073684 0.061524164 0.03220331 0.06737552
000110 39 fe 96 bc 43 4c 2e bd c9 49 94 bd 00 29 22 bd
       -0.01843177 -0.042553198 -0.07240636 -0.039589882
000120 ca c4 99 bd 96 80 be 3d 81 39 13 bc 9b d0 a8 3b
       -0.07508238 0.093018696 -0.008985878 0.005151821
000130 b4 0d 7d bd a9 7a c0 3d 0e 68 1c bd 6c a1 21 bd
       -0.061780646 0.093983956 -0.03818517 -0.039460585
000140 6f e4 91 bd 4f 7a 18 bd be 59 0c 3c 3a cd a0 bd
       -0.071236484 -0.037226018 0.008566318 -0.07851644
000150 22 da 78 bd fd 09 98 bc 97 5d 62 3c 8c 2a da ba
       -0.060754903 -0.01855945 0.013816259 -0.001664476
000160 70 4a 2a 3d a2 a2 6e 3d e6 59 25 3d ad ba df b9
       0.041574895 0.058260567 0.040368937 -0.0004267296
000170 ec 72 df bd 5c a6 6e bd 81 a3 b4 bc 86 da 0a 3d
       -0.109105915 -0.05826412 -0.022050621 0.033899806
000180 f4 74 57 3d 51 b5 2c 3d fb 2a 24 3d c4 6a 13 3d
       0.05260177 0.042165104 0.040080052 0.03599049
000190 75 0d 91 bd 15 fa 9a 3d ba 1e 29 bd 90 42 ec bd
       -0.07082645 0.075672306 -0.04128907 -0.11536133
0001a0 07 60 2d bd b0 08 1c 3c 4b 81 1f 3b 62 f7 0b 3d
       -0.042327907 0.009523556 0.002433854 0.03417147
0001b0 f2 20 81 3d eb 36 da 3c c1 d7 70 3d 9c d4 4c bd
       0.06305112 0.026637515 0.05879951 -0.050007448
0001c0 74 a6 04 3c a2 0a f1 bc f3 c5 af bd 7d 7e 32 3d
       0.008096326 -0.029424015 -0.08582678 0.04357766
0001d0 a6 5f 36 3d 15 18 83 3d a0 09 8d bd c6 12 1d 3d
       0.04452481 0.06401078 -0.068866014 0.038347982
0001e0 32 df 8f bd 7d d8 13 bd e8 5b 21 3d 52 23 ba 3d
       -0.07024993 -0.03609513 0.03939429 0.09088768
0001f0 16 b2 61 3d 64 a9 27 3d 76 5e ac bd 7f 3a 30 bd
       0.055101477 0.040933028 -0.084164545 -0.043024536
000200 67 85 70 bd 5e 13 fc bc e4 30 ed 3b 98 3b 72 3c
       -0.058720972 -0.030770954 0.007238494 0.014784716
000210 ab 14 28 3d 4f 7a d4 bc 06 4d 8c bc c3 78 6f bc
       0.041035336 -0.025937228 -0.017126571 -0.014616194
000220 f0 19 03 bd 51 0e 90 3d 82 e4 f5 3c 67 5c 82 3d
       -0.032007158 0.07033981 0.030016188 0.063652806
000230 f0 05 f7 3a 39 5c c5 bc f2 46 92 ba f6 81 82 bc
       0.0018846374 -0.024091827 -0.0011160059 -0.01593111
000240 c6 dd 33 bd a1 d9 8b bd 48 a7 1e 3b d8 2e ec 3c
       -0.04391267 -0.06828619 0.0024208594 0.02883093
000250 28 66 7a 3d 0a 03 64 3d 32 74 24 3d df 58 99 3c
       0.06113258 0.05566696 0.040149875 0.018719135
000260 ce b6 db 3a 1b 9d 3d bd 70 cf 51 3d 22 5b 84 3d
       0.0016762854 -0.046292406 0.05122322 0.06462695
000270 7b 57 40 3d 98 3c 93 bb 66 82 86 bd 15 73 ba 3d
       0.046958428 -0.0044933073 -0.0656784 0.091039814
000280 28 46 90 3d 90 80 14 3d 3f 1c 7b bc 86 18 f1 bb
       0.07044631 0.03625542 -0.015326559 -0.0073576597
000290 fd 93 86 3d 7e bd 01 bc d3 19 9d 3d 5a a2 38 bd
       0.06571195 -0.007918714 0.07670941 -0.045076706
0002a0 7e 3e a4 bd df 81 b1 3d 95 a5 4f 3d b5 01 6d bc
       -0.08019732 0.08667349 0.05069502 -0.014465739
0002b0 02 8c ad 3b 11 bf a5 bc 68 d8 28 bd 88 e5 ce 3b
       0.0052962312 -0.02023271 -0.041222006 0.0063139834
0002c0 99 d6 10 3d 4c 2b 9c 3d ed 57 94 bd 32 22 bb bd
       0.035360906 0.07625446 -0.07243333 -0.091373816
0002d0 67 b1 e7 bc ef 1f 8e 3d 73 7b 02 3d 16 9c 7d 3d
       -0.028282834 0.069396846 0.03185601 0.061916433
0002e0 3e a4 92 3d 2d ed 25 3d 9b cd a2 bc 59 ae ac bd
       0.07160233 0.04050939 -0.019873431 -0.08431692
0002f0 c2 6a 2e bb d0 0d 77 bd 30 bf 63 bb 7e dd 16 bd
       -0.0026613926 -0.060315907 -0.0034751408 -0.036832325
000300 44 ff b1 bd e6 6d 6a 3d f7 ec 0c 3d d9 9f 84 bd
       -0.08691266 0.057233714 0.034405675 -0.06475801
000310 bf 6b 66 3d 0e b0 cb bd 13 ac 63 bd 04 6b c1 3c
       0.0562551 -0.09945689 -0.055584025 0.0236106
000320 97 30 0f bd 97 ba 80 3c f7 6c 39 bc 9f 0f df bc
       -0.03495845 0.015713973 -0.011317483 -0.027229128
000330 a1 f8 bf 3d c4 88 95 3d c0 2b 7c 3a c5 37 56 3c
       0.09373594 0.073014766 0.00096195564 0.01307482
000340 e7 fc 5f bd d8 b0 70 bd e4 f8 aa bb 3e 2c 96 3c
       -0.054684546 -0.0587624 -0.0052176584 0.018331643
000350 2b b3 85 bd e5 78 81 bd f0 8f 4e 3d 9e 27 8a bb
       -0.06528314 -0.06321887 0.05043024 -0.0042161485
000360 7c e7 d1 bd 92 83 93 3d 2a 64 0a 3c 25 da 85 3d
       -0.1024923 0.072028294 0.008446733 0.065357484
000370 d9 c3 35 bc ba b7 35 3d 2c 39 26 bd 33 06 d5 3c
       -0.011094057 0.04436467 -0.040581867 0.026003933
000380 0e 2d e8 3b cf cd 69 3c fb 15 af bd 7c 01 39 39
       0.007085449 0.01427026 -0.08549114 0.00017643528
000390 de 05 b5 bd c5 c9 40 3d 1e b3 c3 3b 8c cf 4a 3d
       -0.0883901 0.047067422 0.00597228 0.04951434
0003a0 d6 f5 37 3c 5c 53 99 3b 46 8b ab 3d 50 ae e3 3d
       0.011228045 0.0046791267 0.08376174 0.11117232
0003b0 87 13 c8 bc e7 ea 94 bd b4 3f 8e bc d9 67 a7 bd
       -0.024423374 -0.072713666 -0.01736436 -0.08174104
0003c0 1e 0b 67 3d 22 61 96 bd 63 47 08 3d 4a 53 94 3d
       0.056407087 -0.07342745 0.033271205 0.07242449
0003d0 7f 0d 9a bd 61 61 59 3d 15 50 83 3d c9 d7 8d 3d
       -0.075221054 0.053071383 0.06411759 0.069259234
0003e0 53 ae b4 3d 9e a0 27 3c 1c eb fc bb 09 a6 83 3d
       0.08822312 0.010231165 -0.007718457 0.06428153
0003f0 0d 10 a2 3d 86 ac a4 3d 20 1a 2a bd ff d8 3a 3d
       0.07913218 0.08040719 -0.04152882 0.0456171

lstm.weight_hh_l0 f4 [512, 128]
000000 83 84 36 3d 39 5d a6 3d 4b ac d1 3a 43 ec 10 bd
       0.044559967 0.081232496 0.0015996782 -0.035381567
000010 be ee a7 bd 88 db 8e 3d d1 28 be bd 7a 7e d5 bb
       -0.08199833 0.06975466 -0.09285129 -0.0065153213
000020 f4 d1 39 3d 55 6f 73 3d aa 66 7e bd 3b d2 ca 3b
       0.045366243 0.059432346 -0.062109627 0.006189612
000030 8b 82 a7 3c b2 06 27 bc cf b2 6b 3d 8e 88 9b bc
       0.02044799 -0.010194467 0.057543572 -0.018986013
000040 23 ce 2c bd f6 2b 06 bd 84 78 e7 bc 2a ec 71 bd
       -0.042188775 -0.03275677 -0.028255709 -0.059063114
000050 ea 3c 02 3d 99 5f 01 bc dc 5a 99 3d f1 f0 1a bd
       0.031796373 -0.007896327 0.07488033 -0.037827436
000060 95 eb 1d 3c 47 17 a1 3d 90 23 ca 3c 44 c9 54 bd
       0.009638687 0.07865768 0.02467516 -0.051949754
000070 ff ac 9c 3b aa 4e 4c 3c b7 8b 3f 3d b8 0f 98 3d
       0.004781365 0.012469927 0.0467641 0.07424873
000080 42 b5 57 3d 64 98 1b 3d 58 73 66 3d 83 e1 82 3d
       0.052663095 0.037987128 0.056262344 0.06390669
000090 51 f6 59 bd 64 42 8b bd bd a7 00 3d 45 4c 1e 3d
       -0.05321342 -0.067997724 0.031409968 0.038646955
0000a0 cb 67 a6 bd 0f 87 81 3d 35 3f 57 3c ce e2 a8 3c
       -0.08125266 0.063245885 0.013137628 0.020615961
0000b0 74 7e b0 3a 48 62 87 bd 03 ea 3c bd f8 e9 75 3d
       0.001346542 -0.066105425 -0.04612161 0.060037583
0000c0 4c 7b 9a bd 45 38 45 bd 2f 1c 14 3d e5 3b 84 bd
       -0.07543048 -0.048149366 0.03615969 -0.064567365
0000d0 4c 27 5c bd 6d 53 9d bd d0 e8 7c bd 63 92 40 bb
       -0.053748414 -0.07681928 -0.061745465 -0.0029384128
0000e0 c0 c5 32 3c de 6a 07 3c a7 9e 95 bd 5e ac ae bd
       0.010911405 0.008265225 -0.07305651 -0.0852897
0000f0 38 1b aa bc 66 e3 22 bd 9a 2d 9a 3d bc fd aa 3d
       -0.020764932 -0.039767645 0.07528229 0.08349177
000100 e6 85 c2 3d f4 5a 95 bd cd 2d 33 3d bb 08 6c bd
       0.09498195 -0.072927386 0.04374485 -0.057625514
000110 62 0b 9b 3b cb a6 57 3d 6f a7 3a 3d 54 aa ed 3c
       0.0047315815 0.0526493 0.045569833 0.029011883
000120 3a e4 9d bd eb b4 3a 3d 5e 9c e4 3b e9 89 70 bd
       -0.077095464 0.045582693 0.0069766482 -0.05872527
000130 e1 85 f3 3c 4e ef 41 3d 47 0f 80 3d 6a 51 9c bb
       0.029726924 0.04734736 0.06252914 -0.0047704475
000140 59 99 9b bd 21 23 cd 3c bd 45 ac 3c 79 cb 87 3c
       -0.07597608 0.025041165 0.021029348 0.016576516
000150 13 fe 08 3d 49 1c 1a bd 04 13 81 bc a3 0c bd bd
       0.03344543 -0.03762463 -0.015756138 -0.09230926
000160 c3 56 26 bd 4c da 56 3d 94 76 e6 3a 15 3b 2c bd
       -0.040610086 0.052454278 0.0017582946 -0.042048533
000170 c8 eb 82 bd 08 a2 cc ba 3b 25 a9 3d 79 b1 c8 bc
       -0.06392628 -0.0015612254 0.08259054 -0.024498688
000180 f1 3b 6b 3d d4 b8 49 3d 00 25 6b bd 36 07 ee bc
       0.05743021 0.04924853 -0.057408333 -0.029056173
000190 27 bb 5e bd e2 6c 83 3d cd a3 66 bd 49 dc 90 3d
       -0.0543777 0.06417252 -0.056308556 0.07073266
0001a0 0d 7a 64 3c 0b f4 a9 3b 59 d2 aa bd c8 83 e4 bc
       0.013945115 0.005186563 -0.08340902 -0.02789487
0001b0 65 89 54 3d 41 3b ae 3d 0b 62 bc 3d 51 26 b0 bd
       0.051888842 0.085073955 0.09198388 -0.08601058
0001c0 a4 3b c9 bb b3 42 99 3d 73 78 a7 bc 5b cb 44 bc
       -0.006141143 0.07483425 -0.020443177 -0.012011374
0001d0 2c 09 9c bd 47 2d 29 3d 9b 63 7e 3d 0f c8 71 bd
       -0.07618937 0.041302945 0.06210671 -0.05902868
0001e0 f5 27 2b bd 19 e8 9e bd b8 c2 b1 bb ad 10 0a 3d
       -0.041786153 -0.07759113 -0.0054248236 0.03370731
0001f0 df db 1b bd c6 e8 99 bc fa c3 61 3d 71 21 72 bd
       -0.038051482 -0.018787753 0.05511854 -0.059113923
000200 e9 67 3d 3d f0 cf 5b bd a0 36 c7 bd 01 6d 2d bb
       0.046241675 -0.0536651 -0.09727216 -0.0026462676
000210 94 23 9c 3c ce 3a 8a 3d c5 f4 42 bd d9 bf 29 ba
       0.019059934 0.06749497 -0.04759671 -0.0006475426
000220 a8 b1 12 bd ba f9 6e 3d 94 0e 9d bc e7 fc 55 3c
       -0.035813957 0.058343627 -0.01917199 0.013060785
000230 9a 6b 74 bd 01 0a 10 3d e5 bb 10 bd 91 4c 0f 3c
       -0.05967293 0.03516579 -0.03533544 0.008746282
000240 4e c7 7b bb 42 25 53 3d 8f 3f 3c 3d 00 8c e3 b6
       -0.0038418355 0.051549204 0.04595905 -6.7814253e-06
000250 14 33 27 3c 8e 59 a0 3c 91 95 4f 3d 9f 5c a9 3d
       0.010205049 0.019573953 0.050679747 0.08269619
000260 2e 4e f1 3c 62 fd e2 3d 3c 7c a1 3d 3f 20 ce bc
       0.029456224 0.11083485 0.07885024 -0.02516186
000270 d7 55 0d bd 82 42 4e bd 89 cc 98 3d cf 7d 1d bc
       -0.03450569 -0.050356396 0.07460887 -0.009612515
000280 e8 97 62 3c 28 71 d3 3c e1 97 9f bd bc 82 07 3d
       0.013830163 0.025810793 -0.077926405 0.033083662
000290 27 b6 14 3d b1 ac e6 bb a0 f2 23 3d f9 b1 b1 bd
       0.036306527 -0.0070396294 0.040026307 -0.08676524
0002a0 66 f1 dd bd a1 d1 a9 bd af f4 b7 bd 19 51 42 bc
       -0.10837059 -0.08291937 -0.089822166 -0.0118601555
0002b0 22 a8 1f bd 90 0c 1c 3d 40 b0 cc 3c b2 97 0b bd
       -0.038978703 0.038097918 0.024986386 -0.034080215
0002c0 b9 95 42 3d 0b 7a 0c bd fd ec b4 3d 60 85 43 3c
       0.047506068 -0.034296077 0.088342644 0.011933655
0002d0 95 f5 eb bc c0 b6 90 3d 95 4d 0f 3d d1 b8 a6 3d
       -0.028803626 0.07066107 0.034986097 0.0814072
0002e0 c7 64 60 3d e2 6d fb 3c d8 37 44 3d 8f db da bc
       0.05478361 0.030692045 0.04790482 -0.026716022
0002f0 cb e2 a7 bb 25 7b 66 3d 7a 3e 01 bd c5 10 ef 3b
       -0.0051234714 0.056269784 -0.031553723 0.0072957003
000300 23 9d fb 3c 16 49 4d bd 39 b6 d0 bd bb 3e ff 3c
       0.030714577 -0.05011853 -0.10191006 0.031157842
000310 60 4b 60 3d fc 46 0d 3c af 07 1f bd b4 82 79 bc
       0.054759383 0.008622881 -0.038825687 -0.015228916
000320 c5 9a 3e bd 57 2d d7 bc c7 00 71 bd ad 65 02 bc
       -0.04653432 -0.026266737 -0.058838632 -0.007958812
000330 25 a6 41 3d 21 62 90 bd cc 6a c1 bc 2c 62 4b bb
       0.04727759 -0.070499666 -0.023610495 -0.0031033857
000340 90 b3 88 bd 0b 85 0e bd 7a 5b ae 3c 84 dc b5 3c
       -0.06674874 -0.03479485 0.021283854 0.022199877
000350 e7 50 bf 3c 1a 1e 87 bc 3a 33 70 3c e4 d7 8a 3c
       0.023354007 -0.016493846 0.014660651 0.016948648
000360 0e 39 92 bd 63 84 b2 bd 70 d8 60 3c 48 92 03 3c
       -0.071397886 -0.08716657 0.013723478 0.008030482
000370 7e 22 8a bd c0 9a b5 3d 3a d7 91 3d 61 eb 70 3d
       -0.0674486 0.08867407 0.07121129 0.058818225
000380 57 fd 9f bc f9 9e b8 3d da fa 8f 3c c9 11 19 bd
       -0.019529982 0.09014697 0.01757567 -0.037370477
000390 11 52 f0 bc 77 17 81 3d 6b ad 28 3d 97 77 9b 3b
       -0.029336007 0.06303304 0.04118101 0.004744481
0003a0 6c 48 84 bd be 4c 74 3d cb a0 67 bd 47 c0 ab 3d
       -0.06459126 0.0596435 -0.05654983 0.08386283
0003b0 4a b9 c1 bc 88 83 08 3d 83 af b5 bd 41 36 95 3d
       -0.023647923 0.033328563 -0.08871367 0.07285739
0003c0 f7 2c 51 3d 9b cc 8b bc c8 19 c9 3c 7e d2 aa 3d
       0.051068272 -0.017065337 0.024548426 0.083409294
0003d0 85 b8 b2 bc b6 fe 97 bd 56 f3 cb bc 92 20 33 3b
       -0.021816501 -0.07421629 -0.024896305 0.0027332646
0003e0 ac 77 a8 bd 0f 95 e9 ba 0e 57 5a 3c 61 13 9d 3d
       -0.082259506 -0.0017820912 0.0133264195 0.07669712
0003f0 6d 57 7e bd 50 13 b1 bd 32 2b 2f bd 5a 87 94 3d
       -0.062095094 -0.08646262 -0.042765804 0.07252379

lstm.bias_ih_l0 f4 [512]
000000 fd 9f a5 bd 65 0b c3 bc 7e b7 aa 3d 98 89 3d 3d
       -0.08087156 -0.023809144 0.083357796 0.046273798
000010 d7 12 5e 3d d8 96 ed ba 0d e4 91 bd c3 af 31 3d
       0.054217186 -0.001812662 -0.07123575 0.04338051
000020 89 78 75 3d 34 5d 64 3d ed 1c d3 bc 29 d7 79 3d
       0.059929404 0.055752948 -0.025770629 0.06099621
000030 07 54 90 bd bb 3f 9e 3d 67 35 e9 ba 5c 0b 8f bb
       -0.07047277 0.07726999 -0.0017792404 -0.004365368
000040 21 a4 ba 3d 56 f6 cc bc 75 4f 02 3d 7f f5 b1 3d
       0.09113336 -0.025019806 0.031814057 0.08689403
000050 94 32 d6 bc 10 1a 8d bd c9 00 6d bb 05 09 71 bd
       -0.026147164 -0.06889737 -0.0036163798 -0.058846492
000060 1f 36 1c 3d 89 69 ce bb f4 f9 9f bd e7 9f 8c bd
       0.03813755 -0.006299202 -0.07811347 -0.068664365
000070 9f 0b 3a 3c d9 dd 7a bd 54 dc bf 3c 50 b9 48 bd
       0.01135531 -0.061246727 0.02342049 -0.049004853
000080 a3 aa 02 bd 54 47 f4 bc 55 d0 3f 3d 9b 6c b8 3d
       -0.031901013 -0.029819168 0.04682954 0.0900509
000090 81 9c 40 bd 31 10 9c bd 1f 56 a1 bd 75 bb a2 3d
       -0.047024254 -0.07620276 -0.078777544 0.07945911
0000a0 40 a1 6a 3d 8e 58 45 bd 22 22 be 3c 3e 92 40 3c
       0.057282686 -0.048180155 0.023209635 0.011753617
0000b0 40 28 94 3c f0 04 47 bd 2c cf 9e bd 5a 57 ec bc
       0.018085599 -0.048588693 -0.07754359 -0.028850246
0000c0 74 70 ad bb 6d 60 b6 3d 61 82 16 bd b2 34 8f 3d
       -0.0052929465 0.089051105 -0.036745433 0.06992473
0000d0 bd 43 86 bc 2e ed 9d bd b4 2b b1 bd 61 c1 17 3d
       -0.016389722 -0.07711254 -0.08650914 0.037049655
0000e0 e3 35 6c 3d f2 0a 43 3d 66 48 e5 3b 4a 27 42 bd
       0.057668578 0.04761786 0.006997156 -0.04740075
0000f0 98 df f6 3c d0 be 07 3c ae 96 84 3d db b3 4f bd
       0.030135915 0.008285239 0.06474052 -0.050708633
000100 29 3f 77 bd 27 1a 87 3d 55 56 c6 bd d2 44 3c 3d
       -0.06036297 0.06596785 -0.09684435 0.04596407
000110 7d d1 5e 3d eb 64 a0 bd f7 a0 a5 3c 3d 5b 51 ba
       0.054399002 -0.078317486 0.020218356 -0.0007986313
000120 2d ff 32 3d ea aa 9a 3d 24 ca b2 bd 54 3f 65 3c
       0.043700386 0.075521305 -0.087299615 0.013992149
000130 5a 5c be bc 87 86 34 bd a6 56 8a 3c fa 2b f9 3d
       -0.023237396 -0.044073608 0.01688702 0.12166591
000140 57 07 52 bd 1f e2 0d bc 16 57 ac 3a 6b 79 c5 3d
       -0.05127653 -0.0086598685 0.0013148512 0.09642299
000150 bb d2 9b bb c4 8c 84 bd 02 e4 38 bd f7 f7 57 3d
       -0.0047553456 -0.064721614 -0.04513932 0.052726712
000160 ce dc 2d bc 92 08 2f 3d 13 f9 86 bb bb 84 01 bd
       -0.010611726 0.042732783 -0.0041190474 -0.031620722
000170 64 9d de 3c df 8b 8a bd 41 55 4d bd 6c 95 3a 3d
       0.02717466 -0.067649595 -0.050130133 0.045552656
000180 2a ad 1d 3c bb 1f fd bc 75 47 90 bc bd 22 a1 bd
       0.009623805 -0.03089892 -0.017612198 -0.07867954
000190 07 40 99 3d 95 41 ab 3b b8 c0 1c bd 18 68 c9 bc
       0.07482915 0.005226324 -0.03826973 -0.024585769
0001a0 95 12 42 3d 36 34 b0 3c a9 72 21 3c 2a ed 25 bd
       0.047381002 0.021509271 0.009853997 -0.04050938
0001b0 de 75 1d bd 0e 60 71 3d d0 1f 5e 3d 18 6e bf bb
       -0.038442485 0.058929496 0.054229558 -0.0058419816
0001c0 a9 8d 77 bd 24 f4 5a 3c 3b c3 4a bd a9 73 cd 3c
       -0.060437832 0.013363872 -0.049502593 0.025079565
0001d0 41 6f e4 3c 9c 11 18 bb bd a1 74 3d d8 90 1a 3c
       0.027885081 -0.0023203855 0.05972456 0.0094339475
0001e0 bf 39 b7 bd 77 81 c3 3d 16 c4 f8 bb 7f 57 0e 3d
       -0.08946561 0.09546178 -0.0075917346 0.03475141
0001f0 62 d4 98 3d 26 b8 f6 ba 1b d7 6b bd 81 26 af 3d
       0.07462384 -0.0018823191 -0.057578187 0.08552266
000200 82 4d 48 3a cb 87 13 bd d8 58 95 bc e7 cd 02 3d
       0.0007640944 -0.036018174 -0.01823084 0.031934645
000210 9b 88 8b bd e5 78 90 3d 6c 30 39 bd b3 25 d8 3d
       -0.06813165 0.07054309 -0.045212194 0.105540656
000220 6b 80 05 bd a7 18 90 3d f8 05 53 3c d8 a7 af 3d
       -0.032593172 0.07035952 0.012879841 0.085769355
000230 3d 37 50 3d 04 df 81 39 b5 f9 29 bd da 98 c5 bb
       0.05083393 0.00024770957 -0.041497905 -0.006030184
000240 e0 51 83 3d 82 e9 91 bd d0 7f 1c 3d b2 3e ae 3d
       0.06412101 -0.07124616 0.03820783 0.08508052
000250 67 43 55 3d 0b eb 3b 3d 8c 29 ae 3c d7 93 40 bb
       0.052066233 0.04587845 0.021260045 -0.0029384994
000260 a5 d1 df bc 4d b8 ac bc e4 2e 03 bc f1 ea 3b bd
       -0.027321646 -0.021083975 -0.008006785 -0.045878354
000270 54 1d 94 3d 28 33 19 3d 08 f0 66 3d 6c de 59 bc
       0.072321564 0.037402302 0.056381255 -0.013297658
000280 cb 00 6c bc b8 e3 ab 3d c8 5a ad bd 53 0a 66 3d
       -0.014404486 0.08393043 -0.08464581 0.05616219
000290 fb f4 9c bc 15 91 3a bd ad 0c c2 3c b0 6d 21 bd
       -0.019159785 -0.045548517 0.023687685 -0.039411247
0002a0 8b b5 9f 3c fd 75 00 3d 4c 81 8b 3c 38 a0 f0 3c
       0.019495746 0.031362522 0.017029427 0.029373273
0002b0 49 6f 0d 3d e7 a2 36 3d bf 1b 59 3d 87 fd ad bd
       0.034529958 0.04458895 0.053004976 -0.08495622
0002c0 1a 96 97 3d 9c d5 93 3c 4b 17 8d 3b 48 79 2c 3d
       0.074016765 0.018046193 0.0043057553 0.04210785
0002d0 cc a7 4e bc 8a 41 a7 bd e9 3c b6 bd 94 c9 3b bd
       -0.012613248 -0.081667975 -0.088983364 -0.045846537
0002e0 1b 42 ef bc 4c 75 5f bd 8d e9 b3 bd f7 78 70 3d
       -0.029206326 -0.054555222 -0.08784781 0.05870911
0002f0 ca 92 53 3d 11 dd be bd 97 61 63 3d 3b 21 81 bd
       0.05165366 -0.09319509 0.05551299 -0.06305166
000300 f6 b1 5e bd a0 0c bd bc 4c d0 46 bd 25 51 13 3d
       -0.054368936 -0.02307731 -0.04853849 0.035966057
000310 c0 b3 21 3d 96 83 be bd 52 d9 52 bc 6a 92 9b 3d
       0.039478064 -0.09302442 -0.012869196 0.07596286
000320 f5 08 59 3d 7d c4 89 3d e9 5f ab 3d 7d 75 0f 3d
       0.052987058 0.0672693 0.08367903 0.035024155
000330 74 90 9e 3c 7b eb 34 bc ee 56 8b 3b 06 93 86 3d
       0.01935599 -0.011042471 0.004252306 0.06571011
000340 c2 7e 87 3d 74 6a 72 3d a2 4a 84 3d 36 e0 87 3d
       0.06615974 0.059183553 0.064595476 0.06634562
000350 42 60 44 bd 1d 9b 34 3d 9f 20 99 bd 5e b6 18 bd
       -0.04794336 0.04409324 -0.07476925 -0.037283294
000360 06 f4 90 3c 09 c2 54 3d b1 48 68 3d 35 27 cf 3c
       0.017694484 0.05194286 0.05670995 0.02528725
000370 66 16 01 bc ef 22 a3 3d 4e 23 c5 bc 8f 1b 0e 3d
       -0.007878875 0.079656474 -0.024064686 0.03469425
000380 b4 eb 17 3d b2 97 32 bd 2d 5c 7c 3d 3b df f0 3c
       0.03709002 -0.0436017 0.061611343 0.02940332
000390 1b 8a a7 3d 9a fb 06 bd 0a b4 24 bd 84 c2 11 3c
       0.081806384 -0.03295479 -0.04021076 0.008896474
0003a0 9d f7 cd 3c df ae a4 3d 00 c0 36 bd 7d ef 6a bd
       0.025142485 0.080411665 -0.0446167 -0.0573573
0003b0 6a ba 64 3b 32 48 a6 3d e6 31 5a bd bd 36 d8 3d
       0.003490115 0.08119239 -0.053270243 0.105573155
0003c0 b2 f5 95 3d 82 af 55 bd 19 91 01 bd 31 22 87 bd
       0.07322253 -0.05216933 -0.031632517 -0.06598318
0003d0 ad bc 2e 3d 96 57 ce bc 89 c5 5e 3c 5b 0e 63 bd
       0.042660404 -0.025188249 0.013596901 -0.055433612
0003e0 62 af 7c bd a2 a5 2c bd 94 55 9b 3c b5 26 80 3d
       -0.061690696 -0.042150147 0.018961705 0.06257383
0003f0 62 01 0f 3d ee 6c dd 3d ff 41 9a bd be d8 bd bc
       0.034913428 0.10811792 -0.07532119 -0.02317464

lstm.bias_hh_l0 f4 [512]
000000 22 62 3b bd e3 9c aa bd b3 39 8c bd 50 c6 62 3d
       -0.045747884 -0.08330705 -0.06846943 0.055364907
000010 41 9c 84 bd e4 5b 08 bb 7c cb 16 3d 4c d7 2c bc
       -0.064751156 -0.0020806724 0.03681515 -0.010549378
000020 79 20 39 3d f3 e6 85 bd a0 cd d6 ba b0 3a a7 bc
       0.045196984 -0.06538191 -0.0016388185 -0.020413727
000030 75 76 c5 3b ee 32 ce bc af 89 05 bd 0f 2b 90 bd
       0.006026084 -0.02517077 -0.03260201 -0.07039463
000040 fc 1d 77 bc 91 08 1d 3b b1 ac 31 3d 2d 5a 93 3c
       -0.015082832 0.0023961405 0.043377582 0.017987335
000050 ee b8 9d 3d a5 d9 7c 3c 71 fa bb bc d6 16 87 bd
       0.07701288 0.01543275 -0.022946568 -0.065961525
000060 52 0e ca 3c e7 93 9c bc 00 5c bc 3d 4c c7 af 3d
       0.024665032 -0.019113494 0.09197235 0.08582935
000070 c4 09 b5 3d 2d 6c 9f 3d 51 e6 39 bd ac 95 c4 bd
       0.08839753 0.07784305 -0.045385662 -0.0959886
000080 e2 b7 85 3d a8 b8 34 3c 78 6d b1 bd 81 6b 66 3c
       0.065292135 0.011030354 -0.08663458 0.014063717
000090 d1 68 1d 3d a8 b6 04 3d e9 f6 9e 3d 21 3a 82 3d
       0.03843004 0.032400757 0.07761938 0.063587435
0000a0 52 e3 be 3d c5 a5 6c bd 5a ee d4 bc ff e0 90 bc
       0.09320702 -0.057775278 -0.025992561 -0.017685411
0000b0 8a df bc bd 22 21 2a bd 5a ec 8e 3d 98 80 2f bd
       -0.09222324 -0.041535504 0.06978674 -0.042847246
0000c0 0d 59 bd 3d 92 6d 13 3d 38 59 83 3d bc 92 0b 3b
       0.09245501 0.035993166 0.064135015 0.0021297177
0000d0 b0 d3 43 bd 08 b0 68 bd a8 06 93 bd 39 14 b9 3d
       -0.047809303 -0.0568085 -0.07179004 0.0903706
0000e0 6e a4 7c 3c 14 ef d0 bc cd 19 26 3c 03 5d 42 3d
       0.0154200625 -0.025504626 0.010137987 0.047451984
0000f0 32 69 9d 3d bc 47 8f bd 09 3f 62 bd 0b ba 81 3d
       0.0768608 -0.06996104 -0.055235896 0.06334313
000100 4e 24 f1 3c b4 b9 44 bd e0 43 bd 3c 56 d7 8f 3d
       0.029436257 -0.048028663 0.023103654 0.07023494
000110 7c f1 88 3d 65 ce ac bd 30 d0 0b 3d fd e2 62 bc
       0.066866845 -0.08437804 0.03413409 -0.013848064
000120 39 75 91 3d bc c1 ac 3d ee 94 23 3d 5d c7 9f 3d
       0.071024366 0.084353894 0.039936952 0.078016974
000130 65 41 62 3c cd b6 a1 3d ae 54 c1 3d 63 27 b5 3b
       0.013809537 0.078961946 0.094399795 0.005528377
000140 70 8f 98 bc 24 1b 52 3c 5c d5 f9 3c d4 bb b3 3c
       -0.018623084 0.012823854 0.030497245 0.02194015
000150 f4 6f 6a bc 8b cc 34 3d 43 22 b7 bd 66 f7 02 bc
       -0.014308918 0.04414038 -0.08942082 -0.007993555
000160 1e f6 83 3b 53 eb d8 3b ef c1 78 3c 2a 62 a3 3c
       0.004027142 0.0066198497 0.015182956 0.01994427
000170 26 6d 12 3d 79 9f 66 bd a2 cf 50 bd b3 be c6 bb
       0.035748623 -0.05630443 -0.050979264 -0.0060652136
000180 7d 3d 6a 3d 1a 4e 85 bd 9a 4a 92 bd 79 72 8b bb
       0.057187546 -0.06509037 -0.07143135 -0.0042555896
000190 b7 c4 27 3d 73 b3 25 bd 14 08 8a 3d 51 7e 4f 3c
       0.040959086 -0.04045434 0.06739822 0.0126643935
0001a0 a0 e9 f5 3b 86 a8 ab bb d4 ea 3e bb 52 57 34 bd
       0.007504657 -0.0052385954 -0.0029131668 -0.044028588
0001b0 62 47 c2 3d b0 ea 9a bd ae ca 93 3d fb 1c 29 bc
       0.094862714 -0.07564294 0.072163925 -0.010321851
0001c0 90 12 69 bc 94 96 0b bd e8 71 18 bc d6 61 df bc
       -0.014225617 -0.03407915 -0.009304501 -0.027268331
0001d0 1a c3 54 3d e2 2b 97 bd 6e 93 62 bd 1d 6e b1 bd
       0.051943876 -0.07381417 -0.05531638 -0.086635806
0001e0 84 e9 8f 3d 6c 49 4c bd 5d 3c 69 3b 1e 61 d2 bb
       0.070269614 -0.049874708 0.0035588958 -0.0064202687
0001f0 72 dd e2 3c 5f 4f b0 3d 7a 3e 89 3c 28 43 b7 3c
       0.027693484 0.08608889 0.016753424 0.02237089
000200 3f 31 9a 3d e6 9b 69 3b 34 4d 4b bd 5e 35 67 3b
       0.07528924 0.0035645901 -0.049634174 0.0035279612
000210 40 53 74 bd 2a 08 6e bd 97 f1 94 bd cb 81 56 3d
       -0.059649706 -0.058113255 -0.07272642 0.052369874
000220 09 77 e4 3c fd 30 1d bd 8f c5 af bd b4 c3 31 3d
       0.027888792 -0.038376797 -0.08582603 0.043399528
000230 c8 96 ab 3d 30 e0 d7 bb 05 4e 4f bb 58 ca 8b 3d
       0.083783686 -0.0065880045 -0.0031632197 0.068257034
000240 a2 ca df 3c c9 44 6a 3c 83 9a c3 3d b8 65 89 3d
       0.027318303 0.014298626 0.09550955 0.067088544
000250 b3 54 1c 3d 9c c6 c7 bd 67 dc 8c bd ec 3d f4 bc
       0.038166713 -0.097546786 -0.06877976 -0.029814683
000260 ba 5e f2 bb 11 a1 ea 3c 52 f9 b9 3d 20 09 a7 3d
       -0.007396546 0.028641256 0.09080757 0.08156037
000270 9b bc 4a 3d 20 46 87 bd 29 dc 3b 3d a8 74 5e 3d
       0.049496274 -0.06605172 0.045864258 0.05431047
000280 c9 a1 fc 3b a4 9b a9 3d de 1d a2 bd c9 b2 74 3c
       0.007709716 0.08281639 -0.07915853 0.014935204
000290 7a 48 6e 3d cc 1d 95 bd 32 39 81 3b f2 ae 1e 3d
       0.058174588 -0.07281074 0.003943586 0.03874106
0002a0 3d e9 14 3d 34 16 2e 3d 0d 2e 9b 3d a2 32 02 bd
       0.036355246 0.042501643 0.07577143 -0.03178657
0002b0 54 90 d3 bd fd 98 46 bc f8 dc a0 3d d2 14 28 3c
       -0.10330263 -0.012121436 0.078546464 0.01025887
0002c0 c1 c9 37 3d 1d af b9 3b af 89 24 bd 7c 17 24 bd
       0.044870142 0.005666627 -0.040170368 -0.04006146
0002d0 46 ef 80 bd 31 58 42 bd 5b 57 44 bb e0 37 59 3d
       -0.06295638 -0.047447387 -0.0029959294 0.053031802
0002e0 2d dd 88 3d 40 d6 8f bb 0f b8 aa bd 67 f7 a4 bd
       0.06682811 -0.0043895543 -0.08335888 -0.08055001
0002f0 19 dc d6 3d 43 96 b4 bc 77 fa 08 3b fd 48 ad 3d
       0.10491199 -0.022044307 0.0020901242 0.08461187
000300 a2 42 b1 3a 71 a1 8c 3d b3 27 4a bb db d5 ac bd
       0.0013523886 0.0686673 -0.0030846416 -0.08439227
000310 83 d9 92 bd 30 12 2a bd 26 ae 2d 3c 29 83 e7 bb
       -0.07170393 -0.04152125 0.010600602 -0.007065196
000320 82 23 9e 3c 9a cc 54 bb 04 cb 90 bd 64 8d 3d 3d
       0.01930404 -0.0032470585 -0.07069972 0.04627742
000330 75 61 db 3c 30 20 3e 3d 8b de 8d 3d 79 5e d9 bc
       0.02677987 0.046417415 0.06927212 -0.026534306
000340 8b 1a b1 3c 72 21 93 3b e5 fc d0 bc 88 0a 32 bd
       0.021619102 0.004490071 -0.025511215 -0.043467075
000350 3d 72 e6 3c b0 07 37 bc 08 15 c7 bc 51 0a 98 bc
       0.028130645 -0.011171266 -0.02430202 -0.018559607
000360 f2 98 76 bb e7 e6 1a 3d 6d e9 01 3d a9 5b 90 bd
       -0.0037627784 0.037817862 0.031716753 -0.07048733
000370 f6 9b f5 3a 73 60 61 3c 92 34 94 3c 97 72 e9 3c
       0.0018738497 0.013755905 0.018091474 0.028497024
000380 be 33 38 bd 44 95 30 3d 55 d6 29 bc 35 5f e8 bc
       -0.04497122 0.0431111 -0.010366042 -0.02836571
000390 3e f9 5c bc c4 5f 63 bd 9f 97 d9 3b c1 aa 89 3c
       -0.013487158 -0.05551125 0.006640389 0.016805055
0003a0 33 fd 0f 3d 76 a9 50 3d b6 1d b1 bd bc 61 ee 3c
       0.03515358 0.05094286 -0.08648245 0.029099338
0003b0 35 d8 ee 3d 44 aa a7 3d ad 7f 4c bc 3f 1f d9 bc
       0.11662332 0.081867725 -0.012481612 -0.026504157
0003c0 2c ad 2b 3d 23 31 9a bd 53 bc 12 3d f7 af 6a bd
       0.041913196 -0.07528903 0.03582413 -0.05729672
0003d0 6b 21 44 bc a3 ca 3b 3d 83 18 79 bd df 39 34 bd
       -0.011970858 0.045847546 -0.06081439 -0.044000503
0003e0 b8 39 b3 bb cc 4a e4 3d 28 71 33 3c 5a 41 3e bc
       -0.005469527 0.11147079 0.0109522715 -0.011612261
0003f0 40 a4 77 3d 42 2f ca 3d e3 26 8f 3d 34 fd 4d bd
       0.060459375 0.09872295 0.06989839 -0.0502903

fc.weight f4 [1, 128]
000000 66 6a 47 bd a8 b8 2a bd 24 31 53 bc 9b 57 06 3d
       -0.048685454 -0.04168001 -0.012890134 0.03279839
000010 98 73 a8 bd 4e fc 74 bd 57 55 5e bd 8d 3d f1 3c
       -0.08225173 -0.05981093 -0.054280605 0.029448295
000020 08 1f 55 bd 16 a8 0c bc dc aa 32 bd 58 1d d3 3c
       -0.052031547 -0.008584997 -0.043619975 0.025770828
000030 b3 7e 02 3d eb 75 32 3d f6 44 82 3d 3f e9 65 bd
       0.03185911 0.043569487 0.063608095 -0.056130644
000040 97 95 ed 3c 08 50 8d 3d 62 72 69 bd e7 cc ad bd
       0.029001994 0.069000304 -0.05699385 -0.08486348
000050 f4 de 00 bc 91 3d d4 3b 79 30 9b 3d ea 3f 43 3c
       -0.007865656 0.006477066 0.07577605 0.011917094
000060 a7 93 9f 3c 80 91 26 bd 96 4a a9 3d cf fe 90 bd
       0.019479586 -0.040666103 0.08266179 -0.07079851
000070 ac f5 3c bd a6 0e 6b bd 33 8f 47 3c 5c 3e 32 3d
       -0.04613273 -0.057387017 0.012180137 0.0435165
000080 fb e3 c3 3b 3e f8 27 bd 60 d9 0e 39 72 63 0e 3b
       0.005978105 -0.041008227 0.00013623154 0.0021726754
000090 69 0f aa bd 4c 71 39 bd 64 c5 68 bc 70 36 9e bc
       -0.083037205 -0.045274064 -0.014207218 -0.019313067
0000a0 bf 9b 9e bd 09 79 50 3d da 47 95 3d cb 42 48 bd
       -0.0774455 0.050896678 0.07289095 -0.048891824
0000b0 73 dc 06 3c 1e 43 62 3d 12 c7 b9 bd 9e 75 0b 3d
       0.00823127 0.05523979 -0.09071173 0.034047715
0000c0 d9 e4 34 bd 4b 8e ae bd fb 78 cd bc f0 1e 42 3c
       -0.04416356 -0.08523234 -0.025082102 0.011848196
0000d0 ba b9 29 3d f0 64 a9 3d 97 fa 42 3d bf 4b 22 3d
       0.04143689 0.082712054 0.047602262 0.03962302
0000e0 35 d2 e4 3b 98 6a 75 bd 3c 80 c3 bc b4 59 c3 3b
       0.0069830664 -0.05991611 -0.023864858 0.005961621
0000f0 68 c0 82 bd 2a e2 51 3d 35 f1 21 3d 1a 6c 84 bd
       -0.06384355 0.051241077 0.039536674 -0.06465931
000100 80 b7 35 3d cc 4d 8c bd 31 f8 8e 3d 77 84 20 3d
       0.044364452 -0.06850776 0.069809325 0.03918883
000110 d9 84 85 3d 5d 40 3d 3d 7d 99 43 bd 5f cd b5 3d
       0.06519479 0.04620396 -0.0477538 0.08877062
000120 df e5 4c bd f3 a9 c4 bc e1 bd 88 3d 40 56 7f 3d
       -0.05002391 -0.02400682 0.066768415 0.062338114
000130 ba bc 9b 3d b1 c3 84 bd 8c 3b 31 3c b5 87 90 bd
       0.07604356 -0.06482638 0.01081742 -0.07057134
000140 6d 7a b8 bc 95 db 8c bc fc bb 83 bd 41 f6 09 bd
       -0.022519315 -0.017194549 -0.064323395 -0.03368211
000150 47 3e 09 bc 14 fc b8 bd 31 98 99 bc 26 83 ce bc
       -0.0083766645 -0.09032455 -0.018749328 -0.02520902
000160 38 2b 1d 3c 68 27 7c 3c 6a 5b 31 3d 20 90 74 3d
       0.009592824 0.015390255 0.04330007 0.05970776
000170 bc 24 c1 39 dc 16 84 bb 84 6a 4a 3d 7a d4 a2 3d
       0.00036839198 -0.0040310454 0.049417987 0.07950683
000180 d6 83 49 3d 73 67 32 bd 88 c9 a3 bd fd 7c d2 3c
       0.049197994 -0.043555688 -0.079974234 0.025694365
000190 ce 4a b9 bb 1f d0 6a bd ee 69 1a 3d 11 93 99 bd
       -0.0056546694 -0.057327386 0.03769868 -0.07498754
0001a0 fc fe 51 3d ee 46 aa bd fa f7 4a bd 3f f9 19 3d
       0.051268563 -0.0831431 -0.049552895 0.037591215
0001b0 e0 19 0c bd d6 9e 9f 3c ee c2 af 3c 74 86 27 bc
       -0.034204364 0.019484919 0.021455254 -0.010224927
0001c0 0a 27 a1 3d 4e a9 bc bb 76 ab 02 bc da 5e da bc
       0.07868774 -0.0057574874 -0.00797545 -0.026656557
0001d0 aa 64 6a 3d f4 1d a1 3b f7 65 a5 3c dc 01 9d bc
       0.057224907 0.004916901 0.020190222 -0.019165926
0001e0 38 3a a1 3d 82 c5 89 3b bb c7 db bc 06 05 43 bd
       0.078724325 0.004204453 -0.026828637 -0.047612213
0001f0 6a 75 6c 3d 3d 89 97 bd d5 44 3e 3c e1 2f 5e 3d
       0.057729162 -0.07399223 0.0116130905 0.05424488
